제출_코드/models/model_1223/final_dX.pt (torch, 5079 bytes, 11 tensors)

enc.LSTM.weight_ih_l0 f4 [24, 4]
00000000: 6367 573e 3b84 38be 0d16 a2bd ca37 443e
00000010: 37c8 c4be a6b5 7a3e 6201 acbd b1ad 543e
00000020: 4e76 683d d1bf 4cbd 3ee6 e73d d7fb a43c
00000030: aaae 183e bee9 22be 79d5 f3bc d88a 16bd
00000040: 845f 723d 3cc3 d5ba 98b8 b63e 8517 023e
00000050: dcae 1bbe d97b 7cbe 6724 8cbd 0452 34be
00000060: 5af6 05be 4122 a03c 8035 793e 3539 633e
00000070: ac54 ccbe e693 813e f592 e93d 2145 c63e
00000080: c0f7 893e e872 bebe afbd c6be 1ba3 49be
00000090: b18b b73e 6044 8bbd 27e8 323e 5845 42be
000000a0: e618 cd3e eedf 30be 6bc0 9c3e 5869 9e3b
000000b0: ec3b 5cbe cae1 563e 4ae8 5dbe 14e6 f53d
000000c0: 806d f1bd 3a54 37bd cdf3 c8be 1b51 47be
000000d0: 9bd8 623e 2f3c cbbd 8832 d03e ef8c a73e
000000e0: 7498 9cbc f884 8bbe 0a93 7e3e 5ebe 013e
000000f0: df1d 87be 15c5 873e f1cb 7d3e ae61 b93e
00000100: 0157 6abe 36a0 89bd ca92 01bc 333c 743d
00000110: a8a1 9ebe d753 94be 486b 633e 950e c4bd
00000120: 5934 4c3e 8ea9 be3c 6943 093e e8d8 b73d
00000130: 5a00 183e e33a 4f3e 2f94 c1be 986c 523e
00000140: 11f8 92be b7b5 9dbe c462 cb3c e679 8ebd
00000150: 5387 753e 021b 72be 5bd1 b9be da1e 983e
00000160: 63f4 77bd 1522 6b3e 3a65 063e c5bd 9cbe
00000170: 35f8 a73d 9ad3 c83d 08f4 8bbe f359 46be
0.21035533 -0.18019192 -0.07914362 0.19161907 -0.38434002 0.24483356 -0.08398701 0.20769383
0.05675345 -0.049987618 0.11323212 0.020139618 0.14910379 -0.15909478 -0.029764878 -0.036753505
0.059173122 -0.0016308795 0.3568771 0.12704284 -0.15203422 -0.24656619 -0.06842881 -0.17609411
-0.13082257 0.019547584 0.24336815 0.22189792 -0.3990835 0.2530815 0.11404983 0.38724616
0.2694683 -0.37197042 -0.38816592 -0.19691126 0.35848764 -0.06800151 0.17471372 -0.18971765
0.40058059 -0.17272922 0.30615553 0.0048343353 -0.21507233 0.20984569 -0.21670642 0.120067745
-0.117884636 -0.04475806 -0.39248505 -0.19464533 0.22152941 -0.099235885 0.40663552 0.3272471
-0.019115664 -0.27249885 0.24860778 0.12670276 -0.26389977 0.2651755 0.24784829 0.36207336
-0.22884752 -0.06720011 -0.007908532 0.059627723 -0.3098271 -0.28970215 0.22208893 -0.09573094
0.19941844 0.02327421 0.13404621 0.089769185 0.14843884 0.20237307 -0.37808368 0.20549238
-0.28704885 -0.308027 0.024827369 -0.06956844 0.23977403 -0.23643115 -0.36292538 0.29711038
-0.0605358 0.2296222 0.13124552 -0.30613533 0.082016386 0.09805985 -0.2733462 -0.1937025

enc.LSTM.weight_hh_l0 f4 [24, 6]
00000000: 298b 0e3e 57c3 953d 4fd3 31be 3719 fdbd
00000010: d070 bf3e e6b1 9abd e4b0 6b3e ef03 353e
00000020: 321d 87be 6bc2 b1be 92a3 c83e d8a1 ae3c
00000030: cf46 8f3e bf43 ad3d 0474 063e b221 9c3e
00000040: e432 c63e 2bb4 8abe 5312 513d 2cfc 9b3e
00000050: 776c 973e 6cda 813e 2446 97be b884 96be
00000060: 90d2 7cbe e812 523d 7653 d03e e908 84be
00000070: d5c4 5e3e 3762 67be de86 c4be edb3 b1bd
00000080: b9dd 703e 450d c23e bdcf 81be 0371 b53d
00000090: 955b b43e 8a82 8a3e 9e44 823e e589 943e
000000a0: e735 843e adf5 d73d 29ef 8ebe 6a87 afbe
000000b0: b28e 3fbe 16b8 42bd 071f 80be 9af1 183e
000000c0: 5761 013e 2452 bdbd 17ac 203e 2e1b 073e
000000d0: c93b 7f3e ebc3 8c3e 9092 0dbe 9138 cc3e
000000e0: 4a51 41bd 60cc 65bc f34a c5be da87 86be
000000f0: 5e39 74be d7ce 32be ed9b 943e 0e9c 08be
00000100: f532 9cbe dfd7 203e 7fd8 053e e061 873e
00000110: ca53 58be 0447 b53d a430 18be 4ed9 bbbd
00000120: 0a93 a6be 7787 3ebe a707 00be 77c5 323e
00000130: cabe 983d 5287 ce3d 88a0 d03e 3eb8 cb3e
00000140: 4a90 8e3e 42fe 543c b499 90be 855a a33e
00000150: 7f13 d1bd 3b30 07bd be12 b4be f626 a5bd
00000160: 3fd1 86be 9612 c03e 74b4 b4be 0fee a2be
00000170: f31f 63bc 490b 62be f394 153e aeea 20be
00000180: e459 44be d16a bd3c b94f 973e 2608 93be
00000190: 3151 443e fd48 863e 4277 cc3e 404d 92be
000001a0: 3f7e ca3d ac8e 9abe 1c74 b23e ac29 22be
000001b0: b2cf 7b3e 2c22 473c f43b 02bd 476c 55bc
000001c0: 9021 8e3d bc10 453e a917 863d db0d ff3d
000001d0: 7f05 bcbe fb47 983e 5f3d b63e 9dc7 ac3e
000001e0: bf83 9a3e 71d6 96be 42f8 1abe 0d4d b83e
000001f0: 4a34 9fbe 56a1 bd3e 5865 a4be d83c 93be
00000200: a65f 4c3e 4b2e 96be a58c bfbd 0810 983e
00000210: 9d90 a53e 51af c53e 64a8 a9bd 2a77 a2be
00000220: 74ce cd3e 0e1c b2bd b9ff 2bbe 46d1 cb3d
00000230: cc2c 92be 0363 893e 6b00 833e 1edb a5be
0.13920273 0.07312649 -0.17365764 -0.12358325 0.37390757 -0.07553463 0.23016697 0.17677282
-0.26389462 -0.34718642 0.39187294 0.021317407 0.2798371 0.08460187 0.13130194 0.30494457
0.387107 -0.27090582 0.051042866 0.3046583 0.2957494 0.25361955 -0.295457 -0.2939813
-0.24689698 0.05128756 0.40688676 -0.25788048 0.21754773 -0.2259606 -0.38384145 -0.08676896
0.2352208 0.3790075 -0.25353804 0.08859446 0.35226122 0.27052718 0.25442976 0.29011455
0.25822374 0.10544906 -0.2791684 -0.34283 -0.18706778 -0.04753884 -0.25023672 0.14935914
0.12634788 -0.09244183 0.15690647 0.13193962 0.2492515 0.27493224 -0.1382544 0.39886907
-0.047196664 -0.014025778 -0.38533744 -0.26275522 -0.23850009 -0.17461716 0.29025212 -0.1334078
-0.30507627 0.15707348 0.13070868 0.2644186 -0.21125713 0.08851436 -0.14862305 -0.09172307
-0.32534057 -0.18606363 -0.12502919 0.1745814 0.07458265 0.10084404 0.40747476 0.39789003
0.2784446 0.013000073 -0.28242266 0.31904998 -0.10208797 -0.03300498 -0.3517055 -0.08064072
-0.26331517 0.3751418 -0.35293925 -0.3182225 -0.013862598 -0.22074617 0.14607601 -0.15714523
-0.19174916 0.023122223 0.2955301 -0.28717154 0.19171597 0.2622756 0.39934736 -0.28574562
0.09887361 -0.30186975 0.3485421 -0.15836209 0.24590948 0.012154143 -0.031795457 -0.013026304
0.06939995 0.19244665 0.065474816 0.124538146 -0.36722943 0.29742417 0.35593697 0.33746043
0.3017864 -0.2946048 -0.15133765 0.35996285 -0.3109458 0.37037152 -0.3210857 -0.28757358
0.19958362 -0.29332194 -0.09352998 0.2969973 0.32336894 0.38610318 -0.08284071 -0.3173154
0.40196574 -0.08696757 -0.16796769 0.09952025 -0.28549802 0.26833352 0.25586256 -0.32393736

enc.LSTM.bias_ih_l0 f4 [24]
00000000: 93af abbe 387a 12bd 0f97 2f3e 5fb8 41bc
00000010: 5dfb 53be bfeb 183c b377 c4be baba 93be
00000020: fc24 8bbe 0b23 ac3e 4f41 b83e 14ff 0dbe
00000030: 05ff 953c 7d70 3a3e 595b 483d 7656 51be
00000040: 731a 713e 617e 803e 1dd3 c1bc a9d9 4dbd
00000050: e2f2 bd3e 91b6 b63e ec05 6dbe 7281 cc3e
-0.3353239 -0.035761088 0.17147468 -0.011823743 -0.20701356 0.00933355 -0.38372573 -0.288534
-0.27176654 0.33620486 0.35987327 -0.13866836 0.01831008 0.18206973 0.04891524 -0.20443138
0.23545246 0.2509642 -0.023660237 -0.050256405 0.37099367 0.35686162 -0.2314679 0.3994251

enc.LSTM.bias_hh_l0 f4 [24]
00000000: f1e8 ce3d 8cd8 8abe 00d8 643e 250d 9cbe
00000010: 591f c13e 6960 86be 6978 ec3d 2297 fe3d
00000020: 0adf c63d 525e ad3e a3a2 2dbe 997c 30be
00000030: 2b22 b5be 8140 89bc 8009 46be 9e01 863c
00000040: d065 abbd 82b4 0a3e 2ad2 b43e 70b6 f63d
00000050: 65ab 06be 3b22 4dbe d74c b6be c2e1 af3e
0.10103024 -0.27118337 0.22348022 -0.30478778 0.3771923 -0.2624543 0.11546404 0.1243117
0.0971051 0.33861023 -0.16956572 -0.1723503 -0.3537763 -0.01675439 -0.19339561 0.016358193
-0.083690286 0.13545421 0.35316592 0.12046516 -0.1315132 -0.20032589 -0.356055 0.34351927

dec.LSTM.weight_ih_l0 f4 [24, 1]
00000000: b563 9ebd ffc4 a83d 8b6c 773c 1d34 85be
00000010: 966f 6b3e ed47 6a3e 206c a83c 3192 6dbe
00000020: 70a1 31be d838 b83b 6cd8 6ebe 9b40 69be
00000030: 586f 79bd d0c0 f0bd a13e cd3d 5fc3 dbbd
00000040: 89ab 5dbd 808f 1fbe 9b04 bfbe 724b b63e
00000050: fc82 9f3d e2e9 ba3e ddbe 86bd ed1e d2bd
-0.07733861 0.08240699 0.015101562 -0.26016322 0.22991785 0.22879 0.02055937 -0.23200299
-0.1734674 0.0056220107 -0.23324746 -0.22778551 -0.0608972 -0.11755526 0.10021711 -0.107306235
-0.054118667 -0.15582085 -0.373082 0.35604435 0.07788655 0.36506563 -0.06579373 -0.10259805

dec.LSTM.weight_hh_l0 f4 [24, 6]
00000000: 0281 c4be e0b1 1ebe 4f12 893e 0eba ccbe
00000010: d737 12be d4b2 7e3e 63f0 703e 935c 1a3e
00000020: 1c80 a5bd a038 fdbc 9ac7 9ebd d71b 1abe
00000030: 0276 2e3e 4463 0ebe abd9 6abe 21ad bd3d
00000040: 4b15 97be 3c6f b2bd 99a0 553e 783c 1c3e
00000050: 0af3 b13e 4890 8ebe 2e9f 683b 82e6 f6bd
00000060: fed1 69be 642c 6bbe 52a4 d23d a5f3 2e3d
00000070: 1d64 55be fa54 93be 7a2e adbe 2fdb cc3e
00000080: 1782 8ebd 8655 c1bd 1fb9 19be ab17 51be
00000090: 7927 bfbe f76a 75be 9385 7f3e 5340 b73d
000000a0: 2d78 13be 20fc 1dbe e186 853e 57ac 963e
000000b0: 4c61 c93e 94e4 f33d 7bf6 493e 6e5b 06bd
000000c0: 9d67 74be b1c6 ccbe 2ca1 7e3e 000c 73bd
000000d0: a9c0 2b3e a39d a43c ef15 c3be 6317 4dbe
000000e0: 4538 eb3d ba39 a9bd 86d8 c9be 8697 123e
000000f0: 3543 803c 1a5a 06be f6e0 283e f583 b03d
00000100: 3e2d 1abe 8bc6 bb3e aab9 513e caf6 513d
00000110: a092 a0bd 090d b1be ce61 a13e d7be d7bd
00000120: 7b13 87be fd03 863e 3678 143e 20e8 ce3d
00000130: e3c7 a5bd b675 02be 35e2 8d3d 9ac0 a13e
00000140: b876 6f3d 1dac 45be 20a4 cf3e 820d 0f3c
00000150: 893c a53e b7c5 cb3d f75b bb3e a533 713e
00000160: 9f21 55be 54d4 923e 3d1e 2c3b 57c9 a7be
00000170: 2733 afbd b4aa bcbe 3797 58be 5914 94be
00000180: 33f6 8e3e 33a7 afbd 1f75 90bd 8e55 483e
00000190: ef21 2a3e d5f2 89be 8610 1a3e 7298 313e
000001a0: 3e32 a6be 81bb b53e 895f 7ebe 327a 23be
000001b0: 5b2b acbe e40a bf3e e934 9f3d 3801 b03e
000001c0: df63 da3c f639 633e e379 05be e9c0 a6be
000001d0: 4637 863d 811f 15bd c7d6 28bd 094f 4dbe
000001e0: ff77 0a3c b91c f03d 30cf 163e af61 a8be
000001f0: 73f7 493e a6f4 2b3d bd2a 903e 35b8 933e
00000200: d99b a4be a8ba c83e 6090 cdbe 0d52 703e
00000210: 0064 eb3c bbd2 453e bb10 62be f253 7b3e
00000220: eddc 4ebe 35c1 b8be 330f 0c3e 53d2 643e
00000230: 3c32 cf3e bac3 2ebd 6713 c93e cc48 863e
-0.38379675 -0.15497541 0.2677178 -0.39985698 -0.14279114 0.24872905 0.235292 0.15074377
-0.080810755 -0.03091079 -0.07752915 -0.15049683 0.17037204 -0.13905054 -0.22934596 0.09261537
-0.29508433 -0.087126225 0.20862044 0.15257442 0.34755737 -0.27844453 0.003549527 -0.120556846
-0.22834012 -0.22966152 0.10285248 0.042712826 -0.20838971 -0.2877577 -0.3382452 0.40010974
-0.069584064 -0.094401404 -0.15012024 -0.20419185 -0.37334803 -0.23966585 0.24953298 0.08947816
-0.14401312 -0.1542821 0.26079467 0.2942836 0.39332044 0.11908832 0.19722931 -0.032802038
-0.2386765 -0.3999534 0.2486617 -0.059337616 0.16772713 0.020094698 -0.38102672 -0.20028453
0.11485342 -0.082629636 -0.39423007 0.14315614 0.015657047 -0.13120309 0.16492066 0.08618919
-0.15056321 0.36674914 0.20480981 0.051260747 -0.078404665 -0.34580258 0.31519932 -0.10534447
-0.2638205 0.26174918 0.14498982 0.10102868 -0.08094766 -0.12740216 0.06927911 0.31592256
0.05846283 -0.19303937 0.40554905 0.008731248 0.32272747 0.099498205 0.365936 0.23554857
-0.20813607 0.28677619 0.002626314 -0.32770798 -0.085546784 -0.36848986 -0.21151434 -0.28921774
0.2792221 -0.085768126 -0.07053589 0.19563887 0.16614507 -0.2694308 0.15045366 0.1734331
-0.32460207 0.35494617 -0.24841131 -0.15964583 -0.33626828 0.37312996 0.07773764 0.3437593
0.02665895 0.22190079 -0.13034777 -0.32569054 0.06553511 -0.036406998 -0.041220453 -0.20049681
0.008451461 0.117242284 0.14727473 -0.32887027 0.197233 0.04198136 0.28157607 0.28851476
-0.32150152 0.39204907 -0.40149212 0.234688 0.028734207 0.19318669 -0.22076695 0.24543741
-0.20201464 -0.36084905 0.13677673 0.22345857 0.40468013 -0.04266713 0.39272615 0.26227415

dec.LSTM.bias_ih_l0 f4 [24]
00000000: ff55 4fbe 943a a1be 8d77 6a3e 9709 65be
00000010: 73c1 3f3e e003 b3be 3b7f 983e 8097 fa3d
00000020: 363d 40bd 4eba 3f3e 35d0 94be 90c6 b6bd
00000030: 1e25 833b ed8e 71be e1a3 d5bd d448 34be
00000040: e434 c73e 9792 b13e 4247 b43e 9ad7 aa3e
00000050: d32e c8be 63d6 0b3e 4e16 1a3e 6350 99be
-0.20247649 -0.31490004 0.22897168 -0.2236694 0.18726139 -0.34963894 0.2978457 0.122359276
-0.046933375 0.18723413 -0.290651 -0.089245915 0.0040022274 -0.23589678 -0.10431648 -0.17605907
0.3890754 0.34682152 0.35210615 0.33367616 -0.39098224 0.13656001 0.15047571 -0.29944143

dec.LSTM.bias_hh_l0 f4 [24]
00000000: 8273 293e c2d6 62be e4f3 843d 1c78 0a3e
00000010: 725d b43e 2f50 5bbe 4374 a4be 8066 c13e
00000020: 7e7b 2f3e b430 4b3e 5b7b 163e d3f8 13be
00000030: a279 7b3e 007c b6be 6eb5 683d 38f9 3c3e
00000040: 5fd0 8e3e 96c2 50be cd46 8dbe 33b2 1c3e
00000050: aaff a5be 20b6 adbe 74fa bbbe a2b9 4abe
0.16547969 -0.22152236 0.06491831 0.1352238 0.35227543 -0.21417306 -0.3211995 0.37773514
0.17136952 0.19842798 0.14695494 -0.14450388 0.24558118 -0.3564148 0.05681365 0.18454444
0.2789335 -0.20386729 -0.2759308 0.15302353 -0.3242162 -0.33928013 -0.36714518 -0.19797376

att.w1.weight f4 [6, 12]
00000000: 4bb2 61bd e90d 2fbe 47fa f9bd 5fe0 82be
00000010: d1b0 353e 4958 87bd 7482 3abe 72ec 993d
00000020: 6406 5dbe 62eb 4e3e fdf9 293e 143f 91be
00000030: 5e08 68be f5e9 42be f104 20be 68a3 133d
00000040: 9927 92be 8826 5bbe 65ff 063e a9a0 c1bd
00000050: 1f41 ebbd 0e8c 74be 729f ef3d b2fe a63c
00000060: eb84 e4bd d005 35be 7577 7b3d cadc a03d
00000070: f034 033e e0b1 af3d 235f 34bd 40d4 64be
00000080: fd2e 3c3e 1a2c 22bb 4774 44be e3ec 7e3e
00000090: 20d0 243e c852 68be 1da1 13be b230 c9bd
000000a0: 98a5 2abe fa0a 0a3e b9e1 52be bf5c 893e
000000b0: b45d f4bd c57c 2e3e 5811 213c f300 02be
000000c0: 1966 453e 278e 61be fd65 1cbe 7cb9 0d3d
000000d0: a07e 6a3e 404e fdbd 8200 34be c4b7 3cbe
000000e0: 2253 02be 2d39 ccbd 60b4 89bd 222a 28be
000000f0: 5fc7 b83d b8a5 193b 4923 41be 00cf 28be
00000100: e260 7a3d 1821 87bb 6c36 513e cc3f 33bd
00000110: 0278 6fbe c5a1 5abe af88 adbd 4ef0 82bd
-0.055101674 -0.1709515 -0.1220594 -0.25561807 0.17743231 -0.06608636 -0.18213826 0.075158015
-0.21584469 0.20206979 0.16599269 -0.28368437 -0.22659442 -0.1903456 -0.15626885 0.03604451
-0.28545836 -0.21401417 0.13183363 -0.094544716 -0.1148703 -0.23881552 0.11700334 0.02038512
-0.111581646 -0.17677999 0.06139322 0.07854612 0.12813163 0.08578849 -0.044036042 -0.22346592
0.183773 -0.0024745525 -0.19184981 0.24895053 0.16095018 -0.22687829 -0.14416929 -0.09823741
-0.16664732 0.1348075 -0.20593919 0.26828572 -0.11931935 0.17039783 0.009830795 -0.12695675
0.19277228 -0.22026883 -0.1527328 0.03460072 0.22899866 -0.12368441 -0.17578319 -0.18429476
-0.12727025 -0.09971843 -0.06723857 -0.16422322 0.09022402 0.0023444723 -0.18861116 -0.16485214
0.06112755 -0.004123818 0.20430917 -0.043762013 -0.23385623 -0.21350773 -0.08473336 -0.06393491

att.w1.bias f4 [6]
00000000: acf0 063d 1797 84bd 2224 da3d 31a0 c4bd
00000010: 90f5 583e f2ca 873d
0.032944366 -0.064741306 0.10651423 -0.096008666 0.21187425 0.066305056

att.w2.weight f4 [1, 6]
00000000: ba85 00be 1648 ba3e 0a73 d53d cf0c 8ebe
00000010: 35a9 68be 860f 833e
-0.12551013 0.36383122 0.104223326 -0.27744147 -0.22720797 0.2559778
