제출_코드/models/model_1223/final_dY.pt (torch, 5079 bytes, 11 tensors)

enc.LSTM.weight_ih_l0 f4 [24, 4]
0	0x3ea3343c	0.3187579
1	0xbd00733a	-0.03135989
2	0x3e9231f1	0.28553727
3	0x3e4fd7f5	0.20297225
4	0x3e0148a7	0.12625371
5	0xbdc1829c	-0.0944874
6	0x3ec97ef4	0.3935467
7	0x3da931df	0.08261465
8	0xbdd7b92d	-0.10533366
9	0xbbbe3224	-0.005804317
10	0x3ecd7ad8	0.40132785
11	0x3e8c63fd	0.27420035
12	0xbcf7d6b0	-0.030253738
13	0x3ecceb48	0.40023255
14	0x3e379435	0.1792763
15	0xbe5e9331	-0.21735837
16	0xbebe39b8	-0.3715341
17	0x3e72f15d	0.23724885
18	0x3ec4075b	0.38286862
19	0xbe73906d	-0.23785563
20	0x3e2bb37f	0.16767691
21	0x3c8e5fcc	0.017379664
22	0xbdb2c56d	-0.08729062
23	0xbde357a0	-0.111006975
24	0x3de89a2e	0.113575324
25	0x3db85263	0.09000089
26	0x3e8d2d11	0.27573445
27	0x3e190934	0.14944917
28	0x3e3e3c28	0.18577635
29	0x3eb86427	0.3601391
30	0x3e022c67	0.1271225
31	0x3d78392d	0.060601402
32	0xbe18321f	-0.1486287
33	0x3e994b9c	0.29940498
34	0x3d76f358	0.060290664
35	0x3e86bacf	0.263144
36	0x3ec9d7ab	0.39422354
37	0xbdbafe9c	-0.09130594
38	0x3e932c62	0.287448
39	0xbda9cb4b	-0.08290728
40	0x3ebca0f1	0.3684154
41	0x3ea48569	0.32133034
42	0xbe15d7ba	-0.14633074
43	0x3c6fe258	0.014641367
44	0xbe369068	-0.17828524
45	0xbe2913e0	-0.16511488
46	0xbda94811	-0.08265699
47	0xbb366842	-0.0027833139
48	0xbe11ba61	-0.14231254
49	0xbec55147	-0.38538572
50	0xbe7cd889	-0.24691977
51	0xbd0ee517	-0.034886446
52	0xbe0573fb	-0.13032524
53	0x3e9b40c7	0.3032286
54	0x3ea9e7e9	0.33184746
55	0x3e85292b	0.2600797
56	0x3e390502	0.18068317
57	0xbea5b4b6	-0.32364434
58	0x3ec57a48	0.38569856
59	0xbeb8317c	-0.35975254
60	0xbe096f81	-0.13421442
61	0xbe931d1c	-0.28733146
62	0x3e165458	0.14680612
63	0xbeadee70	-0.33970976
64	0xbe4e1830	-0.20126414
65	0xbe84c61e	-0.259324
66	0xbe807bca	-0.25094444
67	0xbe4326da	-0.1905779
68	0x3ecd793d	0.4013156
69	0xbd0894bb	-0.033344965
70	0x3dfedd60	0.12444568
71	0xbecf7e72	-0.40526158
72	0x3eb9d879	0.36297968
73	0xbdb6107c	-0.08889863
74	0xbebfd466	-0.37466735
75	0x3e900cde	0.28134817
76	0xbde21304	-0.11038783
77	0x3ebdd212	0.37074333
78	0xbe8df9a8	-0.27729535
79	0xbec2105b	-0.37903103
80	0xbe9d0787	-0.30669805
81	0x3e3516ad	0.17684431
82	0xbd3b87c1	-0.045783762
83	0xbec1a49f	-0.37820908
84	0x3d9b0695	0.07569615
85	0xbcd52d1a	-0.026022483
86	0x3e170704	0.1474877
87	0xbe54a6da	-0.20766774
88	0xbe95381f	-0.2914438
89	0x3e8e777b	0.2782553
90	0xbe492a06	-0.19644937
91	0x3e9308be	0.28717607
92	0x3ea97a28	0.3310101
93	0xbe922d3f	-0.28550145
94	0xbe40bc75	-0.1882189
95	0x3d494c78	0.049145192

enc.LSTM.weight_hh_l0 f4 [24, 6]
0	0xbec514b1	-0.3849235
1	0x3e00629e	0.1253762
2	0xbe2e2f1a	-0.17010155
3	0xbe395a37	-0.1810082
4	0xbea196be	-0.3156032
5	0x3e4391dd	0.19098611
6	0xbe85330b	-0.26015505
7	0xbea71295	-0.32631364
8	0xbddbdf36	-0.107359335
9	0xbe68ba26	-0.2272726
10	0xbecb363c	-0.39689815
11	0x3e287a8a	0.16452995
12	0xbe1f0d62	-0.15532449
13	0x3e9269db	0.28596386
14	0x3e93228d	0.28737298
15	0xbe854f0f	-0.2603688
16	0xbe73b5a1	-0.23799755
17	0xbe146371	-0.14491059
18	0x3e74df68	0.23913348
19	0xbc663f18	-0.014053129
20	0xbe155846	-0.14584455
21	0x3e817c5e	0.25290197
22	0x3ec639ef	0.38716075
23	0x3e9a87c2	0.301817
24	0xbe9fd755	-0.31218973
25	0xbdada7eb	-0.084792934
26	0xbda05f6a	-0.07830699
27	0x3eb26183	0.3484002
28	0xbe58378e	-0.21114942
29	0xbe6f984f	-0.23397945
30	0x3bd14cf5	0.006387348
31	0xbdc23926	-0.094835564
32	0x3e1e3ce2	0.15452912
33	0x3d4b41d9	0.049623344
34	0xbe799889	-0.24374594
35	0x3e97fdad	0.29685727
36	0x3e821cc8	0.25412583
37	0x3db717c7	0.08940082
38	0xbebd3122	-0.36951548
39	0x3e4472ae	0.19184372
40	0x3e8ae357	0.27126572
41	0x3de8c4de	0.113656744
42	0xbe2197cd	-0.15780564
43	0x3ce04bd1	0.027379902
44	0xbe2098af	-0.15683244
45	0x3ec4c924	0.38434708
46	0x3ec9d609	0.39421108
47	0xbd42ddf4	-0.047574952
48	0xbe8ca157	-0.27466843
49	0x3e75eab2	0.2401531
50	0x3e555d05	0.20836265
51	0x3e5d98ae	0.21640274
52	0xbe9d47b1	-0.3071876
53	0x3e0dc0f6	0.1384314
54	0xbe3266c0	-0.17422009
55	0xbeb7b8b0	-0.35883093
56	0xbe91f4be	-0.28507036
57	0x3e31366a	0.17305914
58	0x3e1c81f3	0.15283947
59	0xbeb773e2	-0.358306
60	0x3e6d1075	0.23150809
61	0x3ea02971	0.31281617
62	0x3e9eace3	0.30991277
63	0x3e6c0bf8	0.2305144
64	0xbd833fbb	-0.0640864
65	0x3e8c0f2b	0.27355322
66	0x3ea3a3d5	0.3196093
67	0x3e59eb76	0.21281227
68	0xbe965707	-0.29363272
69	0xbe11e6b0	-0.14248157
70	0x3ea5978c	0.32342184
71	0x3e9f5ab2	0.31123883
72	0x3e855f8c	0.2604946
73	0xbe2eba0b	-0.17063157
74	0xbda5962f	-0.08085286
75	0xbe9bb967	-0.30414888
76	0xbe6e3eb7	-0.23266111
77	0x3ea07406	0.3133852
78	0xbeab8fd0	-0.33508158
79	0xbdce9e9d	-0.10088847
80	0x3db179f4	0.08665839
81	0xbe7ad539	-0.244954
82	0x3dc2e4ca	0.09516294
83	0xbd8667d5	-0.06562773
84	0x3e272fc5	0.16326816
85	0xbea066a3	-0.31328306
86	0x3d66c4b2	0.056339927
87	0xbebe9259	-0.3722103
88	0x3e81ad27	0.25327417
89	0x3ecb09f0	0.3965602
90	0xbe1535c4	-0.14571291
91	0x3d77442d	0.060367752
92	0xbe5761bc	-0.21033376
93	0xbe85b581	-0.2611504
94	0xbe53b8d5	-0.20675977
95	0xbe4727ec	-0.19448823
96	0x3d9eb56f	0.077494495
97	0xbd3fad82	-0.04679633
98	0x3cea7eab	0.028624853
99	0xbea02e51	-0.31285337
100	0xbe83523f	-0.25648686
101	0xbeb4f4a3	-0.35342893
102	0xbe963bed	-0.29342595
103	0x3eaf0a1d	0.34187403
104	0x3e1b5084	0.15167433
105	0xbec7585c	-0.389346
106	0xbd8b8c20	-0.06813836
107	0x3d0633e2	0.032764323
108	0x3e5f54a3	0.2180963
109	0x3ec1dc13	0.37863216
110	0x3dc9e562	0.098582044
111	0x3e933e40	0.2875843
112	0xbe14c262	-0.14527276
113	0xbc5a8c64	-0.013339136
114	0xbe7c5c49	-0.24644579
115	0x3dc09c69	0.09404833
116	0x3ec0f0a3	0.3768359
117	0x3e834319	0.2563713
118	0x3ecffeb9	0.40624025
119	0xbe3c5df2	-0.18395212
120	0xbd513a55	-0.05108102
121	0x3dac76b4	0.08421078
122	0x3ea80c83	0.32822046
123	0xbec02485	-0.37527862
124	0xbe4d4ea0	-0.20049524
125	0x3d72916d	0.05922072
126	0xbe71a1dc	-0.235969
127	0x3e1c2a67	0.1525055
128	0xbce40096	-0.02783231
129	0xbdd8a7ac	-0.10578856
130	0x3e6033a4	0.218947
131	0x3e956207	0.2917635
132	0x3ecb507d	0.39709845
133	0x3e3d4efe	0.18487164
134	0xbc36eb4e	-0.011164499
135	0x3eaae612	0.33378655
136	0x3ea6597c	0.32490146
137	0xbe5183d4	-0.20460445
138	0x3e3e6b49	0.18595614
139	0x3d43f12a	0.047837414
140	0xbe34aafd	-0.17643352
141	0xbdc71cbc	-0.097222775
142	0xbdc56dc7	-0.09640079
143	0xbe9244d4	-0.28568137

enc.LSTM.bias_ih_l0 f4 [24]
0	0xbdff2371	-0.12457932
1	0x3e0cacf6	0.13737854
2	0x3e997292	0.29970223
3	0x3cfe0a0f	0.031010656
4	0xbeca6b17	-0.39534828
5	0x3e5d670d	0.21621342
6	0xbdfcfd2d	-0.12352977
7	0x3ebaab19	0.36458662
8	0xbec9f991	-0.39448217
9	0xbdc39e29	-0.09551651
10	0x3ea21a26	0.31660575
11	0x3e34d8e0	0.17660856
12	0xbe509113	-0.20367841
13	0xbeb4fea0	-0.35350513
14	0xbb8fae5b	-0.0043847985
15	0x3e217ef3	0.15771084
16	0xbead87c8	-0.33892655
17	0xbeaee949	-0.34162357
18	0xbba8669d	-0.0051391856
19	0xbdab78e6	-0.08372669
20	0x3e865908	0.262398
21	0xbeca879b	-0.39556584
22	0xbd84fc15	-0.06493393
23	0xbea1fa61	-0.31636336

enc.LSTM.bias_hh_l0 f4 [24]
0	0xbd738d6b	-0.05946104
1	0xbe5596e1	-0.20858337
2	0x3e03915a	0.12848416
3	0xbeaedc00	-0.34152222
4	0xbea46e2d	-0.32115307
5	0xbe6d3cc7	-0.23167716
6	0xbeb711f9	-0.357559
7	0x3e83f315	0.25771394
8	0xbd6f4ed0	-0.05842477
9	0xbe6842c7	-0.22681724
10	0x3e9277ee	0.28607124
11	0xbdbdb0a0	-0.09262204
12	0x3e5835a4	0.21114212
13	0xbe019706	-0.12655267
14	0xbeaee10a	-0.34156066
15	0x3db7a0fa	0.08966251
16	0x3e822829	0.25421265
17	0xbecbcde1	-0.3980551
18	0x3d2e117a	0.042497136
19	0x3da6a47e	0.08136843
20	0x3d3fecfd	0.04685687
21	0xbc2584b4	-0.01010244
22	0xbe01f299	-0.126902
23	0xbea245ab	-0.31693777

dec.LSTM.weight_ih_l0 f4 [24, 1]
0	0x3d885eff	0.06658744
1	0xbe8c6213	-0.27418575
2	0xbeacb471	-0.33731416
3	0xbe063708	-0.1310693
4	0xbe8f168d	-0.27946892
5	0x3e00219e	0.12512824
6	0x3e94e332	0.29079586
7	0x3ea2724a	0.3172782
8	0xbe818e9f	-0.25304124
9	0x3e63ead3	0.22257547
10	0x3e9488dc	0.29010665
11	0x3b961093	0.0045796125
12	0x3e305e73	0.1722353
13	0x3e6c8c40	0.23100376
14	0x3e9feefe	0.31237024
15	0x3e5faf72	0.21844271
16	0x3e3270e5	0.17425878
17	0xbe1eab4a	-0.15495029
18	0xbe69139f	-0.22761391
19	0xbe463b31	-0.19358517
20	0x3eabfb13	0.33589992
21	0xbdca81cb	-0.09888037
22	0x3c6f3bfb	0.014601703
23	0xbec2ee8f	-0.3807263

dec.LSTM.weight_hh_l0 f4 [24, 6]
0	0xbc948e5f	-0.018134294
1	0xbdebdc96	-0.11516683
2	0xbe86dea6	-0.26341742
3	0x3ea1e175	0.31617323
4	0xbea93a40	-0.33052254
5	0xbd6f09c4	-0.058358923
6	0xbced20ca	-0.0289463
7	0xbebd3abd	-0.36958876
8	0x3e7cc1b3	0.24683265
9	0xbe05046a	-0.12989965
10	0x3e3bce72	0.18340471
11	0x3e6951cd	0.22785111
12	0x3eb8506f	0.35998866
13	0x3dcece9c	0.10098001
14	0x3e9cebd0	0.3064866
15	0x3ec10af0	0.37703657
16	0x3da5b58a	0.080912665
17	0xbdaa5b75	-0.08318225
18	0xbde4ec12	-0.11177839
19	0x3d877448	0.06613976
20	0x3e16715b	0.14691679
21	0xbec5304b	-0.38513407
22	0x3e9c9ca3	0.30588254
23	0x3d83d898	0.06437796
24	0xbec2b619	-0.38029554
25	0x3e05e766	0.13076553
26	0x3e84a620	0.25907993
27	0x3e1c34bd	0.15254493
28	0x3eaa9eb9	0.3332422
29	0x3c0a479e	0.008439926
30	0xbead6876	-0.3386876
31	0xba72c475	-0.0009260842
32	0x3e97edb0	0.2967353
33	0xbe4912e8	-0.19636118
34	0x3e324f43	0.17413048
35	0x3dc0bb2e	0.09410702
36	0xbd87a80d	-0.0662385
37	0x3b3e2443	0.0029013313
38	0x3e31dba4	0.17368942
39	0xbe8f0945	-0.2793676
40	0x3e83f921	0.25776008
41	0x3e8d8247	0.27638456
42	0x3e6a95ac	0.22908658
43	0x3ed0df06	0.40795153
44	0xbc920971	-0.017826768
45	0xbe93996f	-0.28827998
46	0x3c98b644	0.018641599
47	0xbdf291e2	-0.11844231
48	0x3e139343	0.14411645
49	0x3eb0cf83	0.3453332
50	0xbe64cf8e	-0.22344801
51	0x3c8c0c0f	0.017095594
52	0x3ecb4db0	0.39707708
53	0xbea6dcd2	-0.32590348
54	0xbd90475f	-0.07044863
55	0x3ecaf94c	0.39643323
56	0x3e920d60	0.2852583
57	0x3df2aaf7	0.11849015
58	0xbe344dc7	-0.17607795
59	0xbd1be10c	-0.03805642
60	0xbebb6faa	-0.3660863
61	0xbec4c9e8	-0.38435292
62	0xbec3d74e	-0.38250202
63	0x3ec8c2cb	0.39211115
64	0x3ea5529c	0.32289588
65	0x3e25d3b0	0.16194034
66	0xbdd20139	-0.102541395
67	0x3eb3f79b	0.35149845
68	0xbddcd929	-0.107836075
69	0x3e911c24	0.28341782
70	0xbc59b22e	-0.01328711
71	0xbe44a731	-0.19204403
72	0xbde959c6	-0.11394076
73	0xbdb28779	-0.087172456
74	0xbebf5394	-0.37368453
75	0x3dfa065e	0.12208246
76	0xbdfebda9	-0.124385186
77	0x3e4010da	0.18756428
78	0x3e85451b	0.26029286
79	0xbd84ee19	-0.06490726
80	0x3e4abe78	0.1979922
81	0x3da70c37	0.08156627
82	0x3e8c5f9c	0.27416694
83	0xbe86cd03	-0.26328287
84	0xbd12cf71	-0.035842363
85	0xbe0b4e36	-0.13604054
86	0x3eb7271d	0.3577203
87	0xbebb9e1a	-0.3664406
88	0xbe6af8fd	-0.22946544
89	0x3d3cc5e2	0.046087153
90	0x3eb98eab	0.3624166
91	0x3e8d6d5b	0.27622494
92	0xbec39858	-0.38202167
93	0xbe92f4f3	-0.28702506
94	0x3ecaabb7	0.39584133
95	0x3d73b277	0.05949637
96	0xbeb3079a	-0.34966737
97	0xbe03b4a4	-0.12861878
98	0x3e36c387	0.17848025
99	0xbdaed548	-0.08536774
100	0xbea08e81	-0.31358722
101	0xbe810de0	-0.25205898
102	0xbe589001	-0.21148683
103	0xbc82ff8f	-0.015991
104	0x3e23d42a	0.15998903
105	0x3e48b748	0.19601166
106	0xbe4b1556	-0.19832358
107	0xbd8c48ea	-0.06849845
108	0xbea16242	-0.31520277
109	0x3e9e1286	0.30873507
110	0x3ed09873	0.4074131
111	0x3ecb2a3a	0.39680654
112	0x3e2ad858	0.16684091
113	0xbdb24931	-0.087053664
114	0xbc26bd6c	-0.010176998
115	0x3e16d30a	0.14728943
116	0xbeb52ee2	-0.3538733
117	0x3ccf9b80	0.025342703
118	0xbea9e7cd	-0.33184662
119	0xbed0fcae	-0.4081778
120	0xbc5f8fb8	-0.013645105
121	0xbe0515e4	-0.12996632
122	0xbe846869	-0.2586091
123	0x3d8a9a43	0.06767704
124	0x3c883c73	0.016630387
125	0x3d7f2d23	0.062298905
126	0xbe69f9b2	-0.22849157
127	0xbeccbc5a	-0.3998745
128	0x3c1262f3	0.008934724
129	0xbe2a8b39	-0.16654672
130	0xbe0cf045	-0.1376353
131	0x3e99e140	0.30054665
132	0x3d888c91	0.06667436
133	0x3e3eed94	0.18645316
134	0xbde9aa20	-0.11409402
135	0xbea5db65	-0.32393947
136	0x3da6b6ca	0.08140333
137	0xbe8a6cc5	-0.2703611
138	0x3d4f3070	0.050583303
139	0xbea32058	-0.31860614
140	0x3e9d94ab	0.30777487
141	0xbe8e63b3	-0.2781044
142	0x3eb57712	0.35442406
143	0x3e93a795	0.28838792

dec.LSTM.bias_ih_l0 f4 [24]
0	0x3e9e026f	0.30861232
1	0x3e7ad880	0.2449665
2	0x3dc18592	0.09449305
3	0xbca2ffe0	-0.019897401
4	0xbbd588db	-0.0065165586
5	0xbe264419	-0.16236915
6	0xbec02222	-0.3752604
7	0x3ebe84ec	0.37210786
8	0x3cad47a6	0.021152329
9	0x3e449d7b	0.19200699
10	0x3c757ef8	0.014983885
11	0x3df04503	0.11731913
12	0xbe80c91b	-0.2515343
13	0xbea27cc7	-0.31735823
14	0x3e9f68ef	0.31134745
15	0x3e1e87a5	0.15481432
16	0x3e4e6a70	0.2015779
17	0xbecf7794	-0.40520918
18	0x3ce21b2e	0.02760085
19	0xbec2f794	-0.38079512
20	0xbd3f5c1d	-0.046718705
21	0xbcb0cc3f	-0.021581767
22	0xbe930d4e	-0.28721088
23	0xbecefadf	-0.40425774

dec.LSTM.bias_hh_l0 f4 [24]
0	0x3b301798	0.0026869532
1	0x3ebbf96f	0.3671374
2	0x3ebc6077	0.36792347
3	0xbe7e83f8	-0.2485503
4	0xbd94864f	-0.0725218
5	0xbeaecb52	-0.34139496
6	0xbea33cc6	-0.31882304
7	0xbde53ec4	-0.11193612
8	0x3ecaee94	0.39635146
9	0xbdda1fbe	-0.106505856
10	0x3cc17fba	0.023620475
11	0x3ec4a43e	0.38406557
12	0x3d94ff6e	0.07275282
13	0x3ea89e5c	0.3293332
14	0x3e8ae4df	0.2712774
15	0x3ec400d6	0.38281888
16	0x3d8f61af	0.070010535
17	0xbea90887	-0.33014318
18	0xbeb3d09e	-0.351201
19	0xbe57fec5	-0.2109328
20	0x3eac85cf	0.33695838
21	0x3e7063df	0.23475598
22	0x3df4b45a	0.11948462
23	0xbe9f2d5d	-0.31089297

att.w1.weight f4 [6, 12]
0	0xbe59b697	-0.21261059
1	0x3e712af3	0.2355154
2	0xbcf57a57	-0.029965563
3	0xbe93296c	-0.2874254
4	0xbd122c17	-0.03568658
5	0xbd8def09	-0.06930358
6	0x3b8eaf38	0.004354384
7	0x3df76cd4	0.12081304
8	0x3de37d11	0.11107839
9	0xbe62307a	-0.22088805
10	0xbb4f5abd	-0.0031639778
11	0xbe127e2f	-0.14305948
12	0x3e47f458	0.19526803
13	0x3e1260af	0.14294694
14	0x3e224052	0.15844849
15	0x3e865f77	0.2624471
16	0x3e11337b	0.14179794
17	0xbe93b26f	-0.28847072
18	0x3d952ddc	0.072841376
19	0xbe4ad6b6	-0.19808468
20	0x3d1de687	0.038549926
21	0x3b4a3789	0.0030855855
22	0x3e9297c3	0.2863141
23	0xbe49f67e	-0.19722936
24	0xbe90cf73	-0.2828327
25	0xbd9e7d7d	-0.07738779
26	0x3d3e8a0d	0.046518374
27	0x3e588adf	0.21146725
28	0x3e6facf8	0.23405826
29	0x3e63a863	0.22232203
30	0x3dbaa0c8	0.09112698
31	0xbda8f48e	-0.0824977
32	0xbd7a0351	-0.06103832
33	0xbe21a84e	-0.1578686
34	0x3d6738ba	0.056450583
35	0xbe4d9317	-0.20075642
36	0x3dcb42b4	0.09924832
37	0x3e3ee75d	0.18642946
38	0x3e7ad6dd	0.24496026
39	0xbe91aeb8	-0.28453612
40	0x3e728899	0.2368492
41	0xbe39b223	-0.1813436
42	0xbcc1167e	-0.023570295
43	0x3e86eca0	0.26352406
44	0x3e20305e	0.1564345
45	0xbdbb884c	-0.09156856
46	0x3e2e80c4	0.17041308
47	0xbe8fc1e0	-0.28077602
48	0x3e6718cf	0.22568057
49	0x3e8f7949	0.2802222
50	0xbc56c819	-0.01310923
51	0x3d4299c0	0.04750991
52	0xbd8ab9f3	-0.06773748
53	0xbe3b21ed	-0.1827466
54	0xbe05b484	-0.13057142
55	0xbc9d0c00	-0.019170761
56	0xbe71d65c	-0.23616928
57	0xbe6ee92b	-0.23331134
58	0x3d01c43b	0.03168128
59	0xbe405771	-0.18783356
60	0xbe20cad1	-0.15702368
61	0xbb239b4c	-0.002496439
62	0xbe1bc8a9	-0.15213265
63	0x3e88cffc	0.2672118
64	0xbdd56ce0	-0.10421157
65	0xbe245d47	-0.16051207
66	0xbd9d8064	-0.07690504
67	0xbe712cc6	-0.23552236
68	0x3e18484e	0.14871332
69	0x3e7dfb26	0.24802837
70	0xbe2a7a52	-0.16648224
71	0xbddbc70e	-0.10731326

att.w1.bias f4 [6]
0	0x3e89f043	0.26941118
1	0xbe55d675	-0.2088259
2	0x3da01f46	0.07818465
3	0xbe70d8e7	-0.23520242
4	0xbe838cdb	-0.25693402
5	0x39e50274	0.0004368011

att.w2.weight f4 [1, 6]
0	0xbe6e9840	-0.23300266
1	0x3e62686a	0.22110143
2	0xbe014dd8	-0.12627351
3	0x3b83ce21	0.004022375
4	0xbe5a40c0	-0.21313763
5	0x3e2bca31	0.16776349
