제출_코드/models/model_1224_dsa/model_d/parm/2000.pt (torch, 16806 bytes, 26 tensors)

enc.input_att.w1.weight f4 [30, 30]
00000000: bea9 c03d 5e09 a5bd 68f9 10bd ad80 af3d
00000010: da01 30be cf3d e03d a7d8 19bd b439 be3d
00000020: a2eb cf3c 2122 b7bc c86a 4f3d e190 133c
00000030: 2c90 883d bfb6 91bd 7517 5abc 30a6 86bc
00000040: fcc8 d83c f331 3fba 416e 233e 24b7 683d
00000050: 443f 8bbd 0fd4 e1bd a8b1 fabc 8f48 a1bd
00000060: 98a3 6fbd 603a 0f3c 37e6 de3d 1f3c cb3d
00000070: 4bc2 36be b1cb e73d 3bea 503d 8e56 313e
00000080: e2cd f63d b657 2abe 62c2 31be 8859 b4bd
00000090: 112b 243e e820 f9bc e604 a03d dac2 adbd
000000a0: ce71 373e 9933 9ebd f233 0c3e 03b0 0d3b
000000b0: bbfb c4bd 3f32 c03d e07a c6bd 42f0 5b3d
000000c0: 85f0 57bd 75f9 a3bc bcbc 33be 3d46 b2bd
000000d0: b7e5 ca3d 6cc7 35bd a737 3a3e 9bdc 153e
000000e0: 3310 0cbc 7494 f9bd bfb2 e33d aa17 683d
000000f0: 3db4 f1bd 5adf f23d ab00 e33d 70cf 253e
00000100: 9599 d1bd 4b31 f6bc b4c9 67bb 5773 da3c
00000110: 61e2 0dbe 0bab 04be e868 cb3d d25b 2fbd
00000120: 63a5 b63d 9788 2a3c 498b 753d 2170 243d
00000130: 44f4 873d 275a b93d 6524 2dbe 8835 bc3d
00000140: fd73 03be 590f 0dbe ede9 353c 7dde febc
00000150: 829b db3d b58b d8bd 5233 26be 8b0f 083e
00000160: 01c7 ddbc 394f d23d f169 703d 9431 0cbe
00000170: 8d3c 163d ef9f 333d 205b fabd 2d69 b1bd
00000180: 5efd 7e3d bff3 053d 490d 9fbd d060 62bd
00000190: d03a 2b3e 035d 0abd f4ce d23d b2e7 a13d
000001a0: 08b3 f1bd 2dfe 1ebe f874 333e 1f32 1c3c
000001b0: 8526 003e fbf8 1a3d 6484 703d fba5 0b3e
000001c0: 3e46 313e f01e f8bd d1ff ba3c 6b84 0b3e
000001d0: fd6f 073e d949 e83d b64d 07be b6a0 06be
000001e0: 9e21 e2bd 50e5 bb3c 1b55 3a3e e830 ecbd
000001f0: 2240 c73d b0f4 cebd 68c7 2fbe 36f1 1ebd
00000200: eb6f d73d b290 2d3e bc36 e8bd 4249 223d
00000210: 1e51 213e 2ac6 f73d d107 e93d 64db 043e
00000220: 6381 ec3d 0229 413d 42b0 ffbd 74ff 1cbe
00000230: 8b55 abbd 7c29 aebc ae30 e5bd 0bcc 883d
00000240: 3f71 673d 6f55 29bd a8b5 8f3d 6caf 713d
00000250: ad49 e43d 02cf fb3d aa40 7dbd 28a9 363e
00000260: 90e8 acbc b289 cdbb c976 30be e1a7 f0bd
00000270: ce70 dabd 43ee 9fbd 85eb 043e e95f 74bd
00000280: 6cb5 0bbe d2dc 8f3d 316e 6f3d e42d f23d
00000290: 307d c1bd b123 223d 741f 88bd 6104 28bd
000002a0: 18fd 14be 1a6a aabd de06 65bd e0e5 9f3d
000002b0: 989e 083d 8bb9 383d 0a9a 3a3e 6136 363e
000002c0: 8b06 ff3d c381 be3b a455 01be 9e1b 123e
000002d0: de00 3bbd 14d5 71bc f70f 21be 73b7 13bd
000002e0: 2c2b f1bd 82cb 2b3e 9ba0 21be 9cba 11be
000002f0: 8725 cbbb 122e cabd 41ca 853d a3ed 8fbd
00000300: 2e9f afbd 806b 293c 4856 073e 5f82 03be
00000310: 6597 af3d 6c37 f03d 3be1 363e 34db 02be
00000320: 891d 353d 823d 0abe 1b9d 1f3e f50a 91bd
00000330: 143a e13d 421c b23b 52f8 68bc 2ce4 bebb
00000340: 7940 fe3c b842 b03d 2fdf ef3c 9920 643d
00000350: e82b 28be 5534 083e 0b00 233e f489 1a3e
00000360: bc33 0a3e cee9 06be f19b 8abd 04d8 243e
00000370: 8865 0ebe 449c 293e 460a 13be 81b1 03be
00000380: 1dcc b63d 6853 06be b453 2bbd 4a02 083e
00000390: f315 143e 8ed0 303e 1cbf 17bd 4450 11be
000003a0: 3214 383e 594e 1fbd 2bd7 99bd c54c 363d
000003b0: 2ebe 02be d1c3 f53d c457 ea3d 9758 14be
000003c0: 7b8f 19be 6d03 83bc 730d 9d3d c344 adbb
000003d0: 349a bdbd cfc6 883b d7b9 2fbe 1822 04be
000003e0: c0e8 f8bd c2f6 193e 83cd 243e c902 7ebd
000003f0: 2029 063c a8c1 a63d 6034 b33c c33c bbbd
0.09407376 -0.08058427 -0.035394102 0.08569465 -0.17188206 0.10949289 -0.03756013 0.0928835
0.025380913 -0.022355141 0.050638944 0.00900671 0.066681236 -0.07114934 -0.013311257 -0.016436666
0.026463024 -0.0007293515 0.15960027 0.05681528 -0.06799176 -0.11026775 -0.030602291 -0.078751676
-0.058505625 0.008741945 0.10883754 0.099235766 -0.17847554 0.11318148 0.05100463 0.17318174
0.12050988 -0.16635022 -0.17359307 -0.08806139 0.16032054 -0.030411199 0.07813434 -0.084844306
0.17914507 -0.07724685 0.1369169 0.0021619804 -0.09618326 0.09384584 -0.09691405 0.053695925
-0.05271961 -0.020016411 -0.17552465 -0.08704803 0.09907096 -0.044379637 0.18185292 0.14634936
-0.008548784 -0.12186518 0.111180775 0.056663193 -0.11801956 0.11859007 0.11084112 0.16192412
-0.102343716 -0.030052802 -0.0035368027 0.026666326 -0.13855888 -0.12955873 0.09932119 -0.042812176
0.08918264 0.010408542 0.059947286 0.040145997 0.06638387 0.09050398 -0.16908415 0.09189898
-0.12837215 -0.13775386 0.0111031355 -0.03111195 0.1072302 -0.10573522 -0.16230515 0.13287179
-0.027072432 0.10269017 0.058694784 -0.13690788 0.03667884 0.043853696 -0.12224412 -0.08662639
0.06225335 0.032703158 -0.07766206 -0.05526811 0.16721654 -0.03378011 0.102933794 0.079055205
-0.118017256 -0.15526648 0.17525089 0.009533434 0.12514694 0.037835103 0.058720008 0.13637535
0.17311952 -0.12115276 0.02282706 0.13624732 0.13226314 0.1134221 -0.13213238 -0.13147244
-0.11041568 0.022936493 0.18196528 -0.115327656 0.09729029 -0.10105264 -0.17165911 -0.038804255
0.105193935 0.16949728 -0.11338565 0.039620645 0.157536 0.12098344 0.11378444 0.12974316
0.11548116 0.04715825 -0.124847904 -0.15331823 -0.083659254 -0.021260016 -0.111909255 0.06679543
0.056504484 -0.04134124 0.0701707 0.059005186 0.11146865 0.12295343 -0.061829247 0.17837965
-0.021106988 -0.006272518 -0.17232813 -0.1175077 -0.10666047 -0.07809117 0.12980469 -0.05966178
-0.13643426 0.0702454 0.058454696 0.11825159 -0.09447706 0.03958482 -0.06646624 -0.0410198
-0.14549673 -0.083210185 -0.055914752 0.07807517 0.03335437 0.045098823 0.18222824 0.17794181
0.1245242 0.0058138086 -0.12630326 0.14268348 -0.045655124 -0.014760274 -0.15728746 -0.036063623
-0.117758125 0.16776851 -0.15783922 -0.14231342 -0.006199542 -0.098720685 0.065327175 -0.070277475
-0.08575283 0.010340571 0.13216507 -0.12842701 0.08573798 0.11729321 0.17859356 -0.12778932
0.04421762 -0.13500026 0.15587275 -0.07082168 0.10997406 0.0054354975 -0.01421936 -0.00582554
0.031036602 0.086064756 0.029281227 0.05569515 -0.16422999 0.13301213 0.15917985 0.15091687
0.13496298 -0.13175127 -0.06768025 0.16098028 -0.13905919 0.16563517 -0.14359388 -0.12860681
0.0892565 -0.13117754 -0.041827872 0.13282123 0.14461498 0.17267057 -0.03704749 -0.14190775
0.17976454 -0.038893078 -0.07511743 0.044506807 -0.1276786 0.1200024 0.11442521 -0.1448692
-0.1499614 -0.015992844 0.07668581 -0.005287738 -0.092579275 0.0041740905 -0.17160736 -0.1290363
-0.121537685 0.15035537 0.16094021 -0.062014375 0.008188516 0.08142406 0.02187556 -0.09142449

enc.input_att.w1.bias f4 [30]
00000000: 345a 2ebe 65df 04bc 09f6 52bd 2543 f1bd
00000010: 5dca 103e 995c 17be 5ecd d5bc 0318 54bc
00000020: 8040 29be 8812 e23d cef2 6dbd abfa a73d
00000030: f5af d03d 0adb 243e 4ff9 383d c25a 0c3e
00000040: a3a9 2c3e fa36 143d 455f 18bd 12c1 4cbd
00000050: d04e f23c 648f 863d f25e 30be f113 0c3e
00000060: 78da eb3c b427 2ebe d988 6f3d 244a ed3d
00000070: 03b7 8b3d 6f9b 183e
-0.17026597 -0.008109902 -0.05150417 -0.11780385 0.14139695 -0.14781417 -0.026098903 -0.012945178
-0.16528511 0.11038691 -0.058092885 0.08202108 0.10189811 0.16099182 0.045159634 0.13706496
0.16861586 0.036185242 -0.03720023 -0.049988814 0.029578596 0.06570318 -0.17223719 0.13679482
0.028790697 -0.17007333 0.058480117 0.11586407 0.06822016 0.14903043

enc.input_att.w2.weight f4 [30, 12]
00000000: 9e8e c33b 6b3c 75be 98a9 2bba fbdb 563e
00000010: 412e 0ebe fa2a fc3d 1148 883d e1d8 3fbd
00000020: 5073 063b 7687 fb3d a348 4abe 63a3 3a3e
00000030: b01f 483e 5be0 253e b9b1 933e ff86 4ebc
00000040: acbc 50be a3f7 573c d585 abbd f0b3 d03d
00000050: 440c 7a3e 2ccb 21be 770e 463c dbc1 8f3e
00000060: b4fa 6bbe 800a 4cbd 2f86 8f3e 8f8c 4e3e
00000070: 9197 ab3d f4fc febd 4172 dcbc 9289 84be
00000080: 8e26 8bbe 037b 8abe 9bf5 8d3e 35cd 693e
00000090: c083 ea3d ed7e 94bd 1683 7e3e cf29 9cbd
000000a0: 6737 4d3e 30ef 19bc 020e 0bbe fc00 a5bd
000000b0: 787a 7cbd ca49 87be 56cb b03d 0521 b4bd
000000c0: a0cf 073e df78 3c3e d3fd 3bbd 965c 0f3e
000000d0: ba3d 6c3d a084 463e 1ca3 3ebe 029f cfbc
000000e0: fb01 c5bd 3282 813e 68aa 84be 9626 26be
000000f0: 8f7b 053d 7535 833e 1a02 483e 7e4e 8abe
00000100: 0ed4 4fbe 534f 8f3e e451 2c3d ab2f 7dbe
00000110: 8742 babd c73b 013e 5a40 77bd b70f 63be
00000120: 9c82 36be 0022 19be 7042 39bc 59b0 e73d
00000130: 77ed 0d3e 039a 0fbe 8764 46bd 2e3b 64be
00000140: 4d8c 5f3e d17f 933e c8a8 8f3e 879c f13d
00000150: 6322 7cbd 4dce ebbb 414c d53d a61d 80be
00000160: f5cc 923c 5948 70be b1c6 93be ef14 1ebc
00000170: 1936 bcbd c340 3bbe 7f03 443d beaa 403c
00000180: d86f 343d 1072 25be 21c5 90be 9405 cf3b
00000190: 762f f1bd 3551 c7bd 779e 593e 0d1c 413d
000001a0: aa01 073e cc39 a5bd a58e 6abe ebc4 6b3d
000001b0: 28c3 43be 4081 123d 0bb2 66be 51da 5e3e
000001c0: 7c5e 49be b250 803e aed0 503e 8d75 5f3e
000001d0: ec5f 313e 2ed7 883d 2084 66bc e3fd 96bb
000001e0: b822 ebbd d9db 87be a9b7 863e 030e 753c
000001f0: 2507 0b3e 8497 2d3c 70e5 a93d 5b21 36be
00000200: b9ca 65be 8c70 613e f031 e03d 3ef5 113e
00000210: 8eb3 92be 96e1 9f3c d0dc 89be d34f 07bd
00000220: a607 7abc 7ff6 4fbe 605b 92be 2c08 f93a
00000230: fdea 843e d833 853e 3af8 33be a90b 52bd
00000240: 4332 77be 40da 66be cf19 a2bd 9b7e 8f3e
00000250: a93c 9abd 0cd3 883c ed0b 8b3e f4b6 523d
00000260: 7276 6e3e 026d 443e 6198 8a3e acc5 4a3d
00000270: 980c 6fbe f34b 7ebe 4ebb 18be e1fb 733e
00000280: 42fb 293e 3e08 ad3d 4c1c 61be 97b6 59be
00000290: f32a 713e 577a f5bc 6c29 93be 172c 12bd
000002a0: 09ef 8dbd 38af 8e3b d46c f73d 117d e33d
000002b0: 7a30 62be bd5a 4fbb 2f7e 12be 58f4 473e
000002c0: af60 123e 5240 223e 775f 863e 7b33 113e
000002d0: 6fb2 93be dc2d 953d b6d6 4abe 87e6 1d3d
000002e0: 8937 4a3b c397 923e 7ef6 49be 73cf 90be
000002f0: 7d7d 9ebd 0d8a 3e3d df8a 583e f8ac 6f3e
00000300: 63a8 633e c8a0 ba3d 8ef4 a8bd 5103 7abd
00000310: 4ea8 21be ba38 673d 1793 4dbe b442 cb3d
00000320: 5de7 3e3e ddd6 7a3e b8ae 91be 9988 723e
00000330: 23b2 39be 7e16 c1bc a0ec 863e 5e30 203e
00000340: 4c88 bbbd c480 2e3e e0c1 8fbe cf18 673e
00000350: 4979 8f3e 19c8 56bc c099 423d f3b9 8abd
00000360: ed21 3bbe 84b4 05be 000c 9dbc 5cd6 71be
00000370: 2be9 6ebe 3bc4 013d 7157 40be d1ca 20be
00000380: 4c9b 23bb a9c8 1bbe fccf 883e e06c d5bd
00000390: 475d 24be 6480 9dbd c62c 71be 4e48 183e
000003a0: 26fb 7d3e 527a 2abe 0ec7 dbbd 43f0 893e
000003b0: 75d6 55be 461f a03d e7d8 70be db8c 83be
000003c0: 7402 e539 41b6 28be 3318 203e 13dd b6bd
000003d0: 9466 3a3b ff53 1abe 8df2 f23d 0ef1 883e
000003e0: 79c0 31bd 1173 36be 8c27 90be 06a2 8d3e
000003f0: 0a2e f93d 0129 f43d 9f4f 493d 4d54 143e
0.005967929 -0.23948829 -0.0006548404 0.20982353 -0.13884832 0.12312885 0.066543706 -0.04683769
0.002051551 0.122816965 -0.19754271 0.1822639 0.19543338 0.16198866 0.2884653 -0.012605428
-0.20384473 0.0131816 -0.08375136 0.1019057 0.24418741 -0.1580016 0.01208841 0.28077587
-0.23044854 -0.0498147 0.2803206 0.20170806 0.083785184 -0.12450591 -0.02690995 -0.25886208
-0.27177852 -0.27046975 0.27726445 0.22832187 0.114509106 -0.07250772 0.24854693 -0.07625162
0.20040666 -0.009395406 -0.13579562 -0.080568284 -0.061640233 -0.26423484 0.08632533 -0.087953605
0.13262796 0.18405484 -0.045896363 0.14000162 0.057676055 0.1938653 -0.18616909 -0.025344376
-0.09619518 0.25294644 -0.2591126 -0.16225657 0.032588538 0.25626722 0.19532052 -0.2701301
-0.20295736 0.27990207 0.042070284 -0.24725215 -0.0909472 0.1262046 -0.060364105 -0.22173963
-0.17823261 -0.14954376 -0.011307344 0.113129325 0.13860117 -0.14023595 -0.048435714 -0.222882
0.21830864 0.28808454 0.28058457 0.11797433 -0.06155623 -0.007196224 0.10414935 -0.2502262
0.017919997 -0.23465098 -0.28862527 -0.009648546 -0.09190006 -0.18286423 0.047854897 0.011759458
0.044051975 -0.16156793 -0.28275397 0.0063178036 -0.117766306 -0.09732286 0.21251856 0.047145892
0.13184229 -0.080676645 -0.22905977 0.057560842 -0.19117415 0.035767794 -0.22528856 0.21762969
-0.19664949 0.25061566 0.20392105 0.21822186 0.17321748 0.06681667 -0.014069587 -0.0046079024
-0.114812315 -0.26534918 0.26311997 0.014956954 0.13576944 0.010595206 0.08295715 -0.17786162
-0.22440614 0.2201559 0.10947025 0.14253709 -0.28652614 0.019516747 -0.2692628 -0.03303511
-0.015260613 -0.20308875 -0.2858534 0.0018999628 0.25960532 0.26016116 -0.1757516 -0.05128065
-0.24140267 -0.22544193 -0.07915079 0.2802628 -0.07531101 0.016702197 0.27157536 0.05144401
0.23287371 0.19182208 0.2706938 0.04950492 -0.23344648 -0.2483366 -0.14915201 0.23826553
0.16599753 0.08448838 -0.2198345 -0.21261059 0.2355154 -0.029965563 -0.2874254 -0.03568658
-0.06930358 0.004354384 0.12081304 0.11107839 -0.22088805 -0.0031639778 -0.14305948 0.19526803
0.14294694 0.15844849 0.2624471 0.14179794 -0.28847072 0.072841376 -0.19808468 0.038549926
0.0030855855 0.2863141 -0.19722936 -0.2828327 -0.07738779 0.046518374 0.21146725 0.23405826
0.22232203 0.09112698 -0.0824977 -0.06103832 -0.1578686 0.056450583 -0.20075642 0.09924832
0.18642946 0.24496026 -0.28453612 0.2368492 -0.1813436 -0.023570295 0.26352406 0.1564345
-0.09156856 0.17041308 -0.28077602 0.22568057 0.2802222 -0.01310923 0.04750991 -0.06773748
-0.1827466 -0.13057142 -0.019170761 -0.23616928 -0.23331134 0.03168128 -0.18783356 -0.15702368
-0.002496439 -0.15213265 0.2672118 -0.10421157 -0.16051207 -0.07690504 -0.23552236 0.14871332
0.24802837 -0.16648224 -0.10731326 0.26941118 -0.2088259 0.07818465 -0.23520242 -0.25693402
0.0004368011 -0.16475774 0.15634231 -0.08928885 0.002844249 -0.15071104 0.11862669 0.2674641
-0.043396447 -0.17817332 -0.28155172 0.27662677 0.121669844 0.119218834 0.0491482 0.14485283

enc.input_att.w2.bias f4 [30]
00000000: 5d05 453e 6c77 323d f93e 503e 743f e0bc
00000010: 9209 243b 7859 783e c989 8bbe f1e9 eb3c
00000020: 54ff 863e 5956 14be 0a1b 5abd e379 8ebc
00000030: 73c5 c23d a874 df3d 86ee 853d 4e37 e93d
00000040: 33a9 fdbd d0b9 f83d 0a76 bbbd 04bd 393e
00000050: c082 adbd 7ab5 7bbe bde3 a83c 11d1 193e
00000060: 495d 39bc 1893 753b 5112 863a f7e2 1c3e
00000070: eb08 b93c 7909 84be
0.19240327 0.04357092 0.20336522 -0.027374007 0.0025030118 0.2425288 -0.2725356 0.028798075
0.26366675 -0.14486064 -0.053248443 -0.017392104 0.09510317 0.10910922 0.06539635 0.11387502
-0.12385788 0.12144816 -0.091533735 0.1813851 -0.08472204 -0.24580947 0.020616407 0.15021159
-0.011313745 0.0037471708 0.0010228847 0.15320955 0.02258726 -0.25788477

enc.input_att.v.weight f4 [1, 30]
00000000: 9554 05be fad0 303c 9e31 70bc 09b4 323e
00000010: dacb 2fbd 3314 0f3e 22ac 1dbe 88af 31be
00000020: 9395 89bc b5c0 ecbd 5615 5abd c477 a83c
00000030: 6b2b 22be 8878 003e eaec e2bd 4872 0f3e
00000040: 5472 743d 0e3f 0cbd 479d 23be ae8b f73c
00000050: 94e3 d0bd 4194 213e e446 1dbe 558a 45bd
00000060: fd11 cebd f57b f0bd 6f05 c3bd 8c47 94bc
00000070: 3d5c 4a3c 915a fd3c
-0.13020547 0.010792011 -0.014660267 0.1745149 -0.042919017 0.13972549 -0.15397695 -0.17352116
-0.016794955 -0.115601934 -0.053243004 0.020564921 -0.15836875 0.12545979 -0.11080344 0.14008439
0.059679344 -0.03423982 -0.15977965 0.030217972 -0.10199657 0.1577921 -0.15359074 -0.048227627
-0.10062025 -0.11742393 -0.09522521 -0.018100522 0.012351093 0.030926974

enc.lstm.lstm.weight_ih_l0 f4 [24, 4]
00000000: 29c1 2abe 94b0 81be e429 b0bd b0f9 c43e
00000010: 9e4b 4cbd 00f8 afbe 0d03 a43e 866f cb3d
00000020: 6d1c 913d 5d83 8f3d add5 913e d05a 3ebe
00000030: e556 983e 01ff c83e a196 d7bd c8eb 833e
00000040: c9a4 663e 1dbf c33e 8197 c2bd 68ae 78be
00000050: dd2d 1bbe 6235 8ebe 4778 653c 2487 c93e
00000060: f3c7 ca3e f3e2 9d3e 9f76 253d d333 113c
00000070: 0766 8a3e a83a 783e b0f0 25bd 1576 d3bd
00000080: da4c 253e 3c17 68bc c4d8 92be 87a1 44be
00000090: f983 a93e 1413 ae3e 78e5 22be 946c b3bd
000000a0: 8531 4fbe 217b 08be 6e89 be3e e6e7 b9be
000000b0: 477c 473e 10de bbbe 6b72 47be 2542 aabd
000000c0: 37bd e73c 96c7 87bd 4818 3fbe b776 3abe
000000d0: 3745 7ebe 39e6 91be d539 82be 4070 c83e
000000e0: a9f8 44be 36d2 adbe 84a9 8f3e 502f 223e
000000f0: 9ac7 8f3e 0bea cfbe 22f7 c6be 795a 94be
00000100: 6a3a 5cbe 91ac 6bba 52d4 343e 09c0 743e
00000110: 26c8 b3be c4b8 263e 7bc2 71be 2d2f c03d
00000120: b940 033e 21cd 853d 2ae8 133e 9ffd a6bc
00000130: 9afe 893e 9360 ae3d 931f b73e 1d3d b53d
00000140: b44d 5dbe ff3b 863e ed2e b53c 1f02 ca3e
00000150: 99ed 38bd 7fcf ce3e 190a 74be 411a 523e
00000160: a9ee 9bbe 5c80 8f3e 0bc5 973d 5757 6d3e
00000170: 9301 b4be 1ced cfbe 336e 493e 5afd 2bbe
-0.16675247 -0.2533003 -0.0860174 0.38471746 -0.0498768 -0.34368896 0.32033578 0.09933381
0.070855 0.070074774 0.28483334 -0.1858933 0.29753795 0.39257053 -0.10526777 0.25765824
0.22523798 0.38231745 -0.09501553 -0.2428528 -0.15154214 -0.27775103 0.014005727 0.39360917
0.39605674 0.3083721 0.04039633 0.0088624535 0.27030966 0.24241126 -0.04051274 -0.10325257
0.16142598 -0.014165696 -0.28681004 -0.19202243 0.331085 0.3399893 -0.15907848 -0.08760944
-0.20233734 -0.1332822 0.37214226 -0.36309737 0.19481002 -0.36692858 -0.1947724 -0.08313397
0.028288467 -0.06629865 -0.18661606 -0.18209349 -0.24831091 -0.28495958 -0.25434747 0.3914814
-0.19235481 -0.3394944 0.28059018 0.15838361 0.2808197 -0.40608248 -0.38860422 -0.28975275
-0.21506658 -0.0008990253 0.17659119 0.2390138 -0.3511364 0.1628142 -0.23609345 0.09383998
0.12817658 0.06533266 0.14444032 -0.020384608 0.26952058 0.08514514 0.35766277 0.08849547
-0.21611673 0.26217648 0.022117103 0.39454743 -0.045148466 0.40392682 -0.23831977 0.20517828
-0.3045552 0.28027618 0.0741063 0.23177849 -0.3515745 -0.40610588 0.19670944 -0.16795865

enc.lstm.lstm.weight_hh_l0 f4 [24, 6]
00000000: 7190 253e a905 78be a03b 01be 85b9 ef3a
00000010: f1bf 7b3e ee13 6c3e c85e 15bd 4f7d ecbd
00000020: f7ff e7bb 4776 573e 6829 b1be b57a ffbd
00000030: 5f7f c9be 7e5f 713d 94ca 45bd 33d2 6c3e
00000040: 7ffb a63e c4b8 b2be f102 39be ee68 86bd
00000050: f965 85bb 6bda bebd 236c 83be 5a88 21be
00000060: 5941 2cbc 7517 a83e af14 d5bd 8a09 8a3e
00000070: c0f6 a8be da8e 953c a01d a3be eb23 c4be
00000080: 95b7 253d 4f6b 3fbe c3e2 993e 5f19 a53e
00000090: b10b d0be 3412 e9bc 3dd6 8ebd b746 6ebe
000000a0: 8fed 91be 70e8 30be d491 383e 1ccb c63d
000000b0: 999a 7b3e 5a75 c7bc a81f 593e 90ae a13d
000000c0: 1051 b6bd a783 c3bc ec1a bebe b49b 19bc
000000d0: b255 09be c2e6 0bbe 46e8 27be 68cc b6bd
000000e0: 2d51 9abe 1441 c43c 98ea 87bc dd34 dcbd
000000f0: 7472 b53e 6547 8c3e ff20 ec3d cef9 19be
00000100: e547 553d a5d1 8fbe f9a4 913e d63b c33e
00000110: 07aa 79bd 3133 a13e fd2a c43e c2f2 c8bc
00000120: 433b 1bbe 00c9 a83c 9a2b 8a3d a77c c1be
00000130: c7a0 d0bc e226 17be f17a 8b3e 4d01 40bc
00000140: 1186 893e 58ec b93e 8303 03be e3f8 b33d
00000150: f40a 0fbd 422f 36be 30e7 67be f3c6 1a3c
00000160: d806 fe3d 780d 93bd b2fc 8d3d 7f9f 823e
00000170: 9946 2e3e fc63 2c3e f0f8 ea3d 1eae a0be
00000180: 8beb 7cbe cd01 9bbe 5f5b 893e db19 b8be
00000190: 610d 9cbe 98a7 893e 2e1c 773e ec97 c5be
000001a0: e28d 713e 1ac7 bebd fe21 b43d 79f0 82be
000001b0: 6ad6 7dbd b2d3 b93d b660 9f3e a580 7d3e
000001c0: 2c53 63be 291b 89be 7284 cbbc 4a33 033e
000001d0: d536 653e cc4a d0be c7a5 08bd 6988 6c3c
000001e0: 3f3c 43be 44dd a43e aff0 ddbd 3848 c7be
000001f0: 249b 79be 0c76 563c 6e8c 9bbe 16f9 be3d
00000200: 9956 cb3e 52e8 883c 8ef9 cdbd 0dec c43e
00000210: 174f 9a3e 55e6 8a3e 24b0 fd3c 66e4 983c
00000220: 641a a2be d037 2a3d a54e cb3e 73cc b03c
00000230: 7787 babe 7573 653e 0397 bb3e af3b af3e
0.16168381 -0.24220909 -0.12620401 0.0018289542 0.24584939 0.23054478 -0.036467344 -0.11547338
-0.007080074 0.21041213 -0.34601903 -0.124745764 -0.3935499 0.05892896 -0.048288897 0.2312706
0.3261375 -0.3490659 -0.18067528 -0.065629825 -0.004070994 -0.09319004 -0.2566844 -0.1577467
-0.010513627 0.32830396 -0.10404336 0.26960403 -0.33000755 0.018256593 -0.3185854 -0.38308653
0.04045828 -0.18693279 0.30055818 0.3224592 -0.4063392 -0.028451063 -0.069744565 -0.23269163
-0.28501555 -0.17276168 0.18024379 0.09706709 0.24570693 -0.02434795 0.21203482 0.07894623
-0.0890218 -0.023866488 -0.37129915 -0.009375501 -0.13411596 -0.13662246 -0.16397199 -0.08925706
-0.30140057 0.023956813 -0.016591355 -0.1075227 0.35438883 0.2739822 0.11529731 -0.15036699
0.052070517 -0.28089634 0.28446177 0.3813159 -0.060953166 0.31484368 0.38314047 -0.024529818
-0.15159325 0.020603657 0.067465976 -0.37790415 -0.02546729 -0.14760926 0.27242234 -0.01171906
0.26860097 0.36313128 -0.12794308 0.08787706 -0.034922555 -0.17791465 -0.22646785 0.009446847
0.12403649 -0.07180303 0.069329634 0.2551231 0.17019118 0.16835016 0.11473262 -0.3138284
-0.24699228 -0.3027481 0.26827523 -0.35957226 -0.30478957 0.26885676 0.24131843 -0.3859247
0.2358928 -0.09315319 0.08795546 -0.2557409 -0.06197206 0.09073581 0.31128472 0.24756105
-0.22199696 -0.26778534 -0.024843428 0.12812534 0.22384198 -0.40682065 -0.033361223 0.01443682
-0.19065951 0.32200062 -0.108369224 -0.38922286 -0.24375588 0.013089668 -0.30380577 0.09324853
0.39714506 0.016712341 -0.100573644 0.38461342 0.30138466 0.27128854 0.03096778 0.018663596
-0.3166076 0.041557133 0.3970844 0.021581864 -0.36431476 0.22407325 0.3663865 0.34225222

enc.lstm.lstm.bias_ih_l0 f4 [24]
00000000: 8ebc 9d3c 3012 9d3d 294e 873d 5056 2bbe
00000010: 7bfd 73bd be85 aa3e f299 2a3d 5400 c53e
00000020: 2dce 8abe 9362 74bd a0c3 9c3b c3ce 78be
00000030: 2e62 a13e eefb 913e d27e 61be 6725 b83e
00000040: 68e8 c23e dacd 75be 48b5 66bc 7c4e d03e
00000050: e7b2 87be 10fc 82bd da71 8fbe 88d2 963e
0.019254949 0.076694846 0.06606705 -0.16732144 -0.05956791 0.33305162 0.04165072 0.38476813
-0.27110425 -0.05966432 0.0047840625 -0.24297623 0.31520218 0.2851252 -0.22021034 0.35966036
0.38067937 -0.24004307 -0.014081307 0.4068488 -0.2650368 -0.06395733 -0.2801655 0.29457498

enc.lstm.lstm.bias_hh_l0 f4 [24]
00000000: e489 873d 2d08 2e3e 2afd 953e 4aa8 84bd
00000010: daef d0be 0fc5 a33c 6168 01bd a39c 173e
00000020: f123 433e f3e1 4fbe bdaa 24be 38c4 833e
00000030: 3c04 ee3d ab87 bf3d 3021 3a3e 5d63 423e
00000040: df07 97be d686 053d fcdb 1f3d bce8 c9be
00000050: 996e b13d d37e b2bb d421 a23e ff82 c7be
0.066180974 0.16995306 0.2929471 -0.06477411 -0.40807992 0.019991426 -0.031593684 0.14805846
0.1905668 -0.20301037 -0.16080756 0.2573564 0.116219014 0.093520485 0.18176723 0.18983217
-0.29498193 0.032599293 0.039028153 -0.39435375 0.08663673 -0.0054472475 0.31666434 -0.3896713

dec.tmp_att.w1.weight f4 [6, 6]
00000000: fa9e c43e b994 4cbe c047 763e 8f6b 9a3e
00000010: a578 4fbd 17e1 55be 7dcf 8abd f05b 82be
00000020: 51b1 4e3d 7bb9 2f3e 5dcb ac3d e4bd 70be
00000030: c46b 643e 57cf bf3e 6864 febd 6913 593e
00000040: e170 dcbc d480 283e 3f12 95be 277c b2be
00000050: 8ee3 3dbc e61e b0be aa97 163e 72ac c33e
00000060: adf8 a3bd ad0c 813b 3f4c 7e3d 6304 4abe
00000070: 061c abbc 7665 d73d 5309 a93e 446a adbe
00000080: d166 04bc 9187 aabe 600b 14bd 2965 30bc
0.3840254 -0.19978608 0.24050808 0.30160186 -0.050652165 -0.20886646 -0.067778565 -0.25460768
0.05046207 0.17160599 0.08437226 -0.23509938 0.22306734 0.37462875 -0.12421495 0.2119881
-0.026909294 0.16455394 -0.29115483 -0.34860346 -0.011589898 -0.34398574 0.14706293 0.38217503
-0.080064155 0.0039382786 0.062084433 -0.19728236 -0.020887386 0.10517399 0.33014926 -0.33870137
-0.008081154 -0.33306554 -0.03614366 -0.010766306

dec.tmp_att.w1.bias f4 [6]
00000000: da51 2ebe ab34 803e 5369 8f3e f42c 22be
00000010: e11f 69bd 4d20 00be
-0.17023411 0.25040182 0.28010044 -0.15837461 -0.056915168 -0.12512322

dec.tmp_att.w2.weight f4 [6, 12]
00000000: f8c6 fe3b b7dd c23d 09a6 883e 8f91 87be
00000010: c51c f03d a103 32be 6d65 71be 89a5 633e
00000020: ad22 b0bd 65c2 25be 1b2e a23d f409 76bd
00000030: 3549 87be 5630 1abe 72c1 f9bd c76f b8bc
00000040: b424 43be bb58 8ebe 0869 243e 93d6 7dbe
00000050: e625 0fbd 9dbc 7d3e 9d9a d9bd 127c 43be
00000060: 14df 9d3d 4bfb 803e be65 02bd 4f89 8bbc
00000070: df1e 0a3e 091c 143d a482 623d 396d 1c3e
00000080: 0e5c 063e 68b2 53be 7065 e9bd e6ef 493e
00000090: 0e76 363d 4fb8 893d f9f6 8d3e 8afa 363e
000000a0: 60ea eb3d b86e 8d3e 0503 82be 157e 373d
000000b0: db5d 9a3d a299 4dbd 1bd0 0abe 6541 5a3d
000000c0: 3458 74be b2de fbbd a380 603e 1a36 d9bd
000000d0: ee34 aabd 3597 043e 4d92 95bd 3ca9 2d3d
000000e0: 7fb8 93be 1b52 283e dc7c 83be 8781 1d3d
000000f0: 7ca3 92be 0cb6 7dbe e8ce 6d3e 2ac5 22be
00000100: 753b 23bc 12b1 523c 99ff 873e 3abe bc3d
00000110: 164b 103e 68ec fcbd 58b5 cabd 8b07 573e
0.0077751838 0.09514945 0.26689175 -0.2647824 0.11724237 -0.17384197 -0.23573847 0.22231115
-0.08600364 -0.16187437 0.0791895 -0.060068086 -0.2642304 -0.15057501 -0.121951 -0.022514237
-0.1905697 -0.2780207 0.16055691 -0.24788885 -0.034948252 0.24778982 -0.10625193 -0.19090298
0.077085644 0.2519172 -0.03183531 -0.017033247 0.13488339 0.03615955 0.05530037 0.1527604
0.13121054 -0.20673525 -0.11396301 0.1972042 0.04454618 0.06724607 0.27727488 0.1786901
0.11519313 0.27623534 -0.2539293 0.044797976 0.07537433 -0.050195344 -0.13555948 0.05328502
-0.23861772 -0.12298335 0.21924071 -0.10606022 -0.08310877 0.12948306 -0.07303295 0.042397723
-0.28851697 0.16437571 -0.25681198 0.038453605 -0.28640354 -0.24776477 0.2322346 -0.15895525
-0.009962906 0.0128596 0.26562193 0.0921597 0.14091143 -0.123497784 -0.0989787 0.20998971

dec.tmp_att.w2.bias f4 [6]
00000000: 31bc d83d 5e43 943d 03eb 5ebe c3eb 6bbe
00000010: 6cbc 6e3d 1ad5 5dbe
0.1058277 0.07239412 -0.21769337 -0.23039155 0.05828516 -0.21663323

dec.tmp_att.v.weight f4 [1, 6]
00000000: 348d 923e de2b ae3e 1623 2dbe 24b9 86be
00000010: 6f57 ca3e 180a 5fbe
0.28623354 0.34017843 -0.16907915 -0.26313126 0.39519832 -0.21781194

dec.lstm.lstm.weight_ih_l0 f4 [24, 1]
00000000: 9404 c13e e015 e93e 8742 4c3e 38a6 9c3e
00000010: c97c 043f 55b8 b53e 89b6 6e3d 32c9 bc3e
00000020: 6d85 2cbe 7a9e 92bd 1600 b13e e5b4 0cbe
00000030: 0eeb 453f b959 583f cc8a 313f 7680 9ebf
00000040: 1c47 9ebf 5091 423f adbc 9b3e 71a9 a43e
00000050: 7719 3d3e 30d7 813e ace4 ed3e ca8a 993e
0.37698805 0.45524502 0.19947253 0.30595565 0.5175291 0.35492197 0.058279548 0.3687225
-0.16847773 -0.07159133 0.34570378 -0.13740881 0.7731179 0.84511906 0.6935241 -1.2382953
-1.2365451 0.7600298 0.30417386 0.32160524 0.18466745 0.25359488 0.46463525 0.299887

dec.lstm.lstm.weight_hh_l0 f4 [24, 6]
00000000: 8a48 37be 9aa8 a23e 5ddd 51be 9aec bd3e
00000010: 4c80 e33b 8876 5b3e 5694 c43d 3b29 933d
00000020: d9cf 993e eb9b a7bc ca7a 933e 5802 0a3e
00000030: 3255 69be bd00 893e 8980 94be 1da8 593e
00000040: 5620 b3bd e6b7 013e 8216 48bd 1145 a53d
00000050: 6587 fcbd 1b41 2d3e 5b23 433e 6130 bfbe
00000060: 5c4a b83e 858f a8be 8497 3abe 8692 243e
00000070: 31a8 c03e 93ee 073e 2647 69be 6b22 933d
00000080: ece0 7abe 4bac 443e 1def aa3c 6915 233d
00000090: 2d56 a0be ea1b 5f3e 2098 c63e ae01 91be
000000a0: 9133 0e3e 455a 38be bb19 e0bd 9c0c b93e
000000b0: 49a5 c3be 2ae2 9dbd a25a 163e c3dd 3d3e
000000c0: ca64 23be ed38 64be 7491 a83d e548 bebe
000000d0: 9b00 5e3d c733 84be 0ac5 98bd 5226 bc3e
000000e0: 6e92 adbe 0fc4 4ebe a7cf a0be 102b 793e
000000f0: 2ca5 ac3e ab2b 87be 9de2 833e 56e4 853e
00000100: 4797 b3be 38a6 0e3e 7c01 3e3e dc34 95bd
00000110: 0d9d 8c3e 8ba2 cfbc 381d 59bd ed88 6a3e
00000120: 201c bfbe 364c cdbe f854 9b3d 6e44 383d
00000130: f0d8 ec3c 1a11 80be 7d90 a63e 0a40 81be
00000140: b9e3 38be 236b b0be 1b2d d0be b644 ca3d
00000150: a676 28be ccdf 7f3e 1ac9 c93e 5fc7 073e
00000160: 59bf b63e d67c 91be 0438 5c3e b638 633e
00000170: de52 27be c35f edbc 9ddb 7abe dd0d 213d
00000180: 80af c7be b39b 79be ad2e b4be 4904 53bd
00000190: a46f 2a3d e80d a8be b099 19be 7e04 7b3e
000001a0: 99ff a13c 627d 923d bc9d 38be efe8 f5bd
000001b0: d84f b9be 6eb6 c23e 3629 3e3d 8d8c 403e
000001c0: a464 743e 4644 b73e f22d 90be ca5b e93d
000001d0: 2f2c b5be 1b9e 1b3e e684 56be 8cca 223e
000001e0: 7ee5 99be 1f34 5d3e e2ae 953e 57cc 653e
000001f0: d783 afbe acb6 823e 7da1 84be 2880 c3be
00000200: cf0f 883e 8f61 8e3d ae94 11be b2b3 b6be
00000210: f8f3 d63d 6fb5 34be b0bd a5be 0fdf 51bd
00000220: 3901 b2be 01f2 4d3e edb9 89be aa4b 0ebe
00000230: 42c8 cebe a896 68bd 7115 01be d6ac 663e
-0.17898765 0.31769258 -0.204946 0.37094575 0.0069427844 0.21431935 0.09598605 0.071855985
0.30041388 -0.02046009 0.28804618 0.13477457 -0.22786406 0.26758376 -0.29004315 0.21255536
-0.08746402 0.12667808 -0.04884959 0.08069814 -0.12330512 0.16919367 0.19056456 -0.37341598
0.35994232 -0.32921997 -0.18221861 0.1607152 0.3762832 0.13274603 -0.22781047 0.07184299
-0.24499863 0.1920635 0.020865971 0.03981534 -0.31315747 0.21787992 0.38787937 -0.28321594
0.13886859 -0.18003185 -0.10942408 0.36142433 -0.3821204 -0.07709153 0.14683011 0.18541627
-0.15956417 -0.2228734 0.08230868 -0.3716499 0.054199796 -0.25820753 -0.07459457 0.36747986
-0.3390078 -0.20191978 -0.31408426 0.24332833 0.33719766 -0.26400504 0.2575883 0.2615077
-0.35076353 0.13930595 0.18555254 -0.07285473 0.2746357 -0.025346061 -0.05300638 0.22903796
-0.37326145 -0.40097207 0.07584566 0.044987135 0.028912038 -0.25013047 0.3253211 -0.2524417
-0.1805562 -0.3445674 -0.40659413 0.09876387 -0.16451511 0.24987715 0.3941124 0.13259648
0.35692862 -0.28415555 0.21505743 0.22189602 -0.16340205 -0.028976327 -0.24497838 0.03931986
-0.39001083 -0.24375801 -0.3519186 -0.05151776 0.041610375 -0.3282311 -0.15000033 0.24513432
0.019775199 0.07152821 -0.18028921 -0.12007319 -0.36193728 0.38029808 0.04642602 0.18803616
0.23866516 0.35794276 -0.28160053 0.113944605 -0.35385272 0.15197031 -0.20949134 0.15897578
-0.300579 0.21601914 0.29234987 0.2244123 -0.34280273 0.25529993 -0.25904456 -0.38183713
0.2657456 0.069522016 -0.14216873 -0.35683972 0.10495752 -0.17647336 -0.32371283 -0.051238116
-0.34766558 0.20111848 -0.26899663 -0.13896051 -0.4038716 -0.056784302 -0.12605835 0.22526869

dec.lstm.lstm.bias_ih_l0 f4 [24]
00000000: 526d 923f c4fd d13f 388d b93f 9259 cd3f
00000010: 8bac 973f 7768 663f 823e 92be ccd5 0cbe
00000020: 3dfe 82be 1559 5d3e baf7 06be 62d7 74bc
00000030: 0297 d9be ec8f 33bf f0af 5bbe d902 7abe
00000040: 6173 4bbe 2c59 d6be 8cda 6f3f 24b2 b63f
00000050: 50bb 753f c965 b83f 72e6 a63f 35e1 cc3f
1.1439612 1.6405568 1.4496222 1.604296 1.1849531 0.9000315 -0.28563315 -0.13753432
-0.25584593 0.21616013 -0.13180438 -0.014943929 -0.42498022 -0.7014148 -0.21453834 -0.24415149
-0.19868232 -0.41864908 0.9369285 1.4273114 0.9598894 1.4406062 1.3039076 1.6006228

dec.lstm.lstm.bias_hh_l0 f4 [24]
00000000: 2694 c63f ec9d e23f 8eaf 913f bc05 e43f
00000010: f77e 7d3f db65 763f 50fb 603e efa9 b73d
00000020: 3869 e73d 46f9 6e3e 1688 843e 9075 443e
00000030: 26d4 17bf e4ad f4be 6510 f0be 3bd0 7d3e
00000040: f073 ce3d fa92 08bf d8c4 c23f a4d1 d23f
00000050: 849b 9b3f 8167 b43f 8133 823f da45 aa3f
1.5513961 1.7704444 1.13817 1.781425 0.9902186 0.9624917 0.21970868 0.08967959
0.11299366 0.23337278 0.25885075 0.19185472 -0.5930809 -0.47788918 -0.46887508 0.24786465
0.10080707 -0.5334927 1.5216322 1.6470227 1.2156835 1.4094087 1.0171968 1.3302567

dec.dense.weight f4 [1, 7]
00000000: 56fd e13c b912 8ebe deac 8fbe cd77 c1be
00000010: 2f35 973e d169 b53e 9784 bf3e
0.02758662 -0.2774866 -0.28061575 -0.37786713 0.29532763 0.35432294 0.37405846

lstm.weight_ih_l0 f4 [24, 4]
00000000: a04a 30bd 6df0 393e 5b70 773e 5358 dfbd
00000010: 6eda 70be 1ffe ad3e 173b 2fbd 2527 1a3e
00000020: 657e 43be 79a6 57be 95ec 9abd 1a33 5d3c
00000030: db50 773e c1c8 873e c41a 52bd c57f cd3e
00000040: ab8d 5ebe aeca e03c c300 83be cede 883d
00000050: 4182 be3e ace6 acbe 84ae c43d 3719 c0be
00000060: 25ff babd a279 44be 5068 343a ad0e 91be
00000070: 9057 d43d 0e3b c5be 6249 b73d 3a34 21be
00000080: ba2d 7abe af33 b13e b585 343d db5c 8abe
00000090: 92a1 6bbe 4885 3abe d55d 77be 23c6 4e3d
000000a0: 2056 bc3b 9439 b63e e74a 433c d7fe 5ebe
000000b0: 5bbb b33e 1443 d23d b467 b4bd 6cb1 923e
000000c0: f85a ab3e e3f7 afbe 9d64 acbe f77e 89be
000000d0: 6cc0 b3be 4ed9 fabd 3208 193e 77ac bebe
000000e0: 914a ccbe 8bfc b3be 111f 5abe 410d 833e
000000f0: 1552 b93e 36a6 cf3e 2ebc 913b 3608 b1be
00000100: 63d6 cb3e 3981 8cbe 56d6 1d3e d6f7 503e
00000110: d93d 013e cff9 093e 37fd c2be 33dd 0cbe
00000120: fb71 86be b75b 903e 0e84 6dbe 6e03 20bc
00000130: bac9 b93e 296e 9e3e 3b63 96be 8c5e aebe
00000140: e46f a53e 8a9f f03d 0f41 a0be fcbb b43e
00000150: 68e6 96be 59f2 b43e 6df5 953e 3af3 943e
00000160: ce68 a0bd 6f54 113d d48a aebe 3481 6b3e
00000170: 63d5 c03c 0fc8 9a3e 9139 30be 16ea c93e
-0.043039918 0.18158121 0.24163954 -0.109055184 -0.23520824 0.33982942 -0.04278096 0.15053995
-0.19091184 -0.21059598 -0.07564656 0.013500953 0.24151938 0.2652035 -0.051295057 0.40136543
-0.2173373 0.027440395 -0.2558652 0.066831216 0.3720875 -0.3376974 0.09603599 -0.37519237
-0.09130696 -0.19187024 0.0006881999 -0.2833151 0.10368264 -0.38521618 0.089495435 -0.15742579
-0.24431506 0.34609744 0.044072825 -0.27023968 -0.23010853 -0.18214905 -0.24156888 0.050481927
0.0057475716 0.35590804 0.011919714 -0.21776901 0.35103878 0.102667004 -0.08808842 0.28650987
0.3346784 -0.3436881 -0.33670512 -0.2685468 -0.35107744 -0.12248479 0.14944533 -0.37240955
-0.3990064 -0.35153612 -0.21300913 0.2559605 0.36195436 0.40556496 0.0044474816 -0.34576577
0.39812002 -0.2744234 0.15413794 0.20407042 0.1262125 0.134742 -0.38083813 -0.13756256
-0.26258835 0.28194973 -0.23194906 -0.009766443 0.36286718 0.3094342 -0.29372582 -0.3405651
0.32311928 0.1174918 -0.31299636 0.3529967 -0.2947266 0.35341147 0.29288808 0.29091817
-0.0783249 0.035480913 -0.34090292 0.22998506 0.02353925 0.30230758 -0.1720946 0.39436406

lstm.weight_hh_l0 f4 [24, 6]
00000000: 6d54 8b3e 0135 eabd 8e45 e43d 117c 98be
00000010: 7a2a 8bbe 9837 8fbe 1d26 70be 4b73 e83d
00000020: 882c 34be 7063 10be c439 923e 9f18 8a3d
00000030: a5be 4bbe a3e7 e2bd 42d0 dbbd 552a 433e
00000040: 9222 933e 8a8e a63e dd35 8ebe 21a4 32bd
00000050: f941 c43d a061 23be 2770 893e 72e7 39bd
00000060: df6f 323d 2db3 b2be 2808 973e ae80 8abe
00000070: fcda 20bc 427d aabe bb05 9f3e bd4e c13c
00000080: de43 3c3e bc4a a4be ee2a 0e3d 5545 2b3e
00000090: 779c 933e b69d 993e f445 95bd 43d7 29bd
000000a0: b7e5 0a3e 7b4f 16be 2e1c 2abe 1f71 c0be
000000b0: 1bfa ccbe 6f1f 5cbe 5cc7 503d 06c8 063d
000000c0: af27 063d 0c6c 7a3d c469 9abd 3e82 cebe
000000d0: 07a6 ba3e bef1 98be a4a6 9cbb 261a 263e
000000e0: 9d56 d63d 8492 35be e4a4 b5be ad5c a73e
000000f0: 789b 3e3c 48a1 be3e e60a 433e f096 323e
00000100: 92ea b43d a791 bcbd 0802 75be 7911 4b3d
00000110: c9db c83e dd9e 7a3e fee5 bd3e 4d06 c43e
00000120: 8f52 a33e 99a4 6abe 40ab 63be a576 65bc
00000130: 7134 58be 6fdc e2bd c133 0fbe 9be7 b63e
00000140: f9e2 e0bc 4154 ca3e cd13 a2be ed2e cebe
00000150: 7916 6f3d 4b9e a63d a1b1 28be 318f 53be
00000160: 7222 ee3d 488b a73c ce05 60bd b13a 543e
00000170: 81c8 31be 6c6b a43e 438c 8ebe 388b 59be
00000180: 31ca 103e b874 803e 97cb a3bb 0d15 a4be
00000190: 9d99 85bc 9622 0dbe 5294 05be 8d8a 9abd
000001a0: 7128 c93d f49e c2bd ca94 92be 8dba 50be
000001b0: 1814 afbe 57c8 d0be d206 4a3e 0695 693e
000001c0: 55f4 9d3e e05f 043d 11f3 2bbe 166e 7bbe
000001d0: 2537 503e 78a4 7cbe a634 9c3e b9bb 62be
000001e0: fafd c2be a187 96be 423d aa3e a5c5 9d3e
000001f0: 5111 cc3d 2cbe 1a3c 9438 b33e 9646 7c3e
00000200: 7285 773e 9343 8ebe 33c9 853d d560 bd3e
00000210: 313e 93be 9e3d d03e c7e7 88be 86af f5bd
00000220: 4ab4 9dbc 147e d93d c478 003e 7219 6fbe
00000230: b357 3f3e 8546 dd3d c924 3abd 2e09 d0be
0.2721285 -0.11435891 0.11146079 -0.29782155 -0.27180845 -0.27972102 -0.23452039 0.113501154
-0.17595112 -0.14100432 0.28559697 0.06742977 -0.19896944 -0.110793374 -0.107330814 0.19059117
0.28737313 0.32530624 -0.2777547 -0.043613557 0.09582896 -0.1595521 0.26843378 -0.04538674
0.04356372 -0.34902325 0.2949841 -0.270513 -0.009817835 -0.3329869 0.3105906 0.023597116
0.18385264 -0.32088268 0.03470891 0.16725667 0.2883031 0.30003136 -0.07288733 -0.041465055
0.13564192 -0.14678757 -0.16612312 -0.37586305 -0.40034565 -0.21496366 0.050971374 0.0329056
0.03275269 0.061138198 -0.075397044 -0.40333742 0.36454794 -0.29871935 -0.0047806073 0.16220912
0.10465739 -0.17731673 -0.35477364 0.32687894 0.011633746 0.37232423 0.19047126 0.1744039
0.08833803 -0.092074685 -0.23926556 0.04957721 0.39230183 0.24474664 0.37089533 0.38286057
0.31898925 -0.22914352 -0.22233295 -0.014005338 -0.21113755 -0.110772006 -0.13984586 0.35723576
-0.027451979 0.39517406 -0.31655732 -0.40270177 0.05837104 0.08135661 -0.1647401 -0.20660092
0.11627664 0.020452157 -0.054693036 0.20725514 -0.17361642 0.32113206 -0.27841386 -0.21244514
0.1413963 0.2508905 -0.004998635 -0.3204731 -0.0163086 -0.13782725 -0.13044861 -0.07545958
0.09822167 -0.09502974 -0.28629142 -0.20383663 -0.34195018 -0.40777847 0.19729164 0.22810754
0.30850473 0.032317996 -0.16791941 -0.24553713 0.20333536 -0.24672115 0.30508918 -0.22141923
-0.38084394 -0.29400352 0.3324986 0.30814853 0.0996424 0.009444755 0.35004103 0.24636301
0.24171999 -0.2778593 0.06532516 0.3698794 -0.28758386 0.4067201 -0.26739332 -0.11996369
-0.019251008 0.106197506 0.12546068 -0.2334955 0.18685798 0.10804466 -0.045445237 -0.40632004

lstm.bias_ih_l0 f4 [24]
00000000: 06df ce3e 4d99 1abe cfd3 5ebe c2fa ce3e
00000010: 2fd9 53be 17a4 8b3e 6818 7f3e e20c 88be
00000020: 8491 a8be 3544 63be 55d7 023e 682c c53e
00000030: 54a6 b9bc 85b8 f9bd 1888 f0bd ff91 91be
00000040: 18e3 d03e 0616 91bb db68 a5be 3ecc 8ebe
00000050: d009 823e 7633 4a3e a8d9 863e 9b49 30bd
0.40404528 -0.15097542 -0.21760486 0.40425688 -0.20688318 0.27273628 0.24911654 -0.2657233
-0.3292352 -0.22193988 0.12777455 0.38510442 -0.02266232 -0.121933974 -0.11744708 -0.284317
0.4079826 -0.004427674 -0.3230656 -0.278902 0.2539811 0.19746193 0.26337934 -0.043038946

lstm.bias_hh_l0 f4 [24]
00000000: ce31 a5bd b4f8 083e a8fa 82bb 5395 06be
00000010: 3663 c73d 0b40 6ebe d6b9 90be 8ed1 b8bd
00000020: ee00 95be 62d3 293c cc94 833d fdaa cc3e
00000030: 03f6 f03d 4594 1cbb d9e9 97be 6908 28be
00000040: 5e4d 88bd ad81 96be c0c0 a23d 0a70 963e
00000050: 2532 6f3e 5f60 2dbe c863 ccbd 4f61 d03e
-0.0806614 0.13376123 -0.0039971657 -0.131429 0.0973572 -0.23266618 -0.28266782 -0.090243444
-0.29102272 0.010365339 0.06424865 0.39974204 0.11765673 -0.0023892086 -0.296706 -0.16409458
-0.066553816 -0.2939581 0.079469204 0.29382354 0.23358972 -0.16931294 -0.09979969 0.4069924

dense1.weight f4 [6, 12]
00000000: d03a af3f 9a26 953f 06a4 ae3f 2d3f c2bf
00000010: d053 d2bf 4c8c ac3f 7c0c 71be 690f b63d
00000020: 2e26 4dbe fa7a cb3d e7ba 5e3e e9d6 3ebe
00000030: aa7f c4bf 8193 b3bf 71c8 afbf a591 da3f
00000040: 5e2f c33f 6268 abbf 986b a3bd 2aff c23d
00000050: 759f b23d bb01 6ebe 89ec 1c3e f750 72bd
00000060: 4e64 94bf 9e38 dbbf 6604 b3bf 3407 d53f
00000070: 0850 de3f 3056 b0bf 23bf 1fbe 1580 64be
00000080: 83d8 5fbe 5302 6e3e 61b8 80be a4ef e9bd
00000090: c770 cb3f 4e23 cd3f 8898 913f 755b bfbf
000000a0: 25c2 c2bf 572e d53f 97be 27bc d40e fb3d
000000b0: 5164 ccbc ebec 833e 5063 f1bc efb3 2dbe
000000c0: 5be7 adbf 3c67 c9bf c75a a5bf c551 dd3f
000000d0: af61 a73f f5f9 cabf 92ff 803b d752 8abc
000000e0: efff b7bd 136f 773e f784 043e 6604 c4bd
000000f0: cf77 ba3f 13a5 b03f 9c54 973f 70de b4bf
00000100: ecdc dcbf 72ef b43f 84ab 483e 3dbf 87be
00000110: c24e 4f3c 6f7e 883e 1680 053e 7227 e9bd
1.3689823 1.1652405 1.3643806 -1.517553 -1.6431828 1.3480315 -0.23539919 0.08889658
-0.20034096 0.09935565 0.21750985 -0.18636669 -1.535146 -1.402939 -1.3733045 1.7075697
1.524883 -1.339123 -0.07979506 0.09521325 0.0872182 -0.23242848 0.15324606 -0.059159245
-1.159311 -1.7126653 -1.3985717 1.6642823 1.7368174 -1.3776302 -0.15600257 -0.22314484
-0.21859936 0.23243074 -0.2514067 -0.11422661 1.5893792 1.6026399 1.1374674 -1.4949785
-1.5215498 1.6654767 -0.010238311 0.122586876 -0.024950178 0.25766692 -0.029466301 -0.1696317
-1.3586229 -1.573463 -1.2918328 1.7290579 1.3076686 -1.5857531 0.0039367164 -0.016885204
-0.08984362 0.24163465 0.12941347 -0.095711514 1.4567813 1.3800377 1.1822696 -1.4130383
-1.725492 1.4135573 0.19596678 -0.2651309 0.012653055 0.2665896 0.13037142 -0.11384477

dense1.bias f4 [6]
00000000: 88a1 053d 41fe 83be ed06 713d 98ab 723e
00000010: 5287 863e 7c84 89bc
0.03262475 -0.25779918 0.058844496 0.2369827 0.26275116 -0.016786806

dense2.weight f4 [1, 6]
00000000: 5e85 c23f cdfe bfbf 4988 cbbf 07d9 bb3f
00000010: 609b d4bf a063 d23f
1.519695 -1.4999634 -1.5900966 1.4675606 -1.6609917 1.6436653
