제출_코드/models/model_1224_img/model_d/parm/1996.pt (torch, 221947 bytes, 13 tensors)

conv1.cnn.weight f4 [12, 3, 3, 3]
0.09965158 -0.09398578 -0.0336947 0.08338201 -0.15945444 0.11130197 -0.045504943 0.087906376
0.007228782 -0.043048475 0.07667764 0.032498192 0.039226912 -0.07061919 -0.035612866 -0.003863801
0.073169954 -0.0109692095 0.14877696 0.08318792 -0.04866512 -0.14727607 -0.027876025 -0.10459083
-0.04820821 0.054490693 0.10452129 0.10231785 -0.17989448 0.13711038 0.05121477 0.17240216
0.12291473 -0.17749232 -0.23325874 -0.11249549 0.14947632 -0.012125771 0.051190965 -0.087652005
0.16620257 -0.07861 0.16021052 -0.017051464 -0.12863499 0.079402104 -0.08222425 0.0254313
-0.053790577 -0.043733194 -0.18220542 -0.075876154 0.08509697 -0.07402859 0.2166049 0.15510838
-0.03774952 -0.15264072 0.12473356 0.054066606 -0.10663834 0.124366134 0.067521416 0.16706456
-0.11051443 -0.018762756 -0.020522779 0.027630195 -0.18887573 -0.110750616 0.09822483 -0.059150577
0.09039799 0.008336376 0.076104224 0.025522938 0.069495805 0.052574478 -0.15242985 0.0904012
-0.14934637 -0.16417131 0.03067232 -0.042175654 0.119752556 -0.12649384 -0.15489031 0.15424724
-0.014556358 0.07504562 0.059472263 -0.15651552 0.05858883 0.047316305 -0.11366359 -0.08064201
0.07267035 0.0495627 -0.079972364 -0.060657132 0.16405964 -0.01567813 0.10959064 0.098524615
-0.11373063 -0.15662995 0.19982928 0.011942367 0.1535795 0.026958909 0.0744561 0.14578663
0.1979172 -0.13068005 0.031526133 0.15516575 0.13800465 0.11133426 -0.12540635 -0.124260604
-0.11461236 0.05326594 0.159163 -0.11330883 0.091914326 -0.0905933 -0.18916322 -0.027027145
0.125223 0.18045534 -0.09042582 0.009117155 0.17431994 0.11688881 0.13588619 0.1445982
0.10593118 0.047689196 -0.13562553 -0.1704239 -0.11245903 -0.0396823 -0.093782485 0.06862679
0.034630544 -0.06106661 0.050513078 0.07428455 0.1335757 0.11878534 -0.07094886 0.17945658
-0.01220956 -0.03154308 -0.19912292 -0.1473073 -0.10034228 -0.06623886 0.12601398 -0.068664156
-0.15238638 0.08408892 0.051355366 0.1184633 -0.06883743 0.07186716 -0.08306517 -0.07010098
-0.16165987 -0.097770065 -0.02413681 0.07122497 0.037122414 0.022516416 0.19038275 0.19695213
0.119291805 -0.010648385 -0.13435158 0.1388808 -0.0591979 -0.013592056 -0.19082029 -0.039731592
-0.114743285 0.16486031 -0.18317679 -0.15122785 -0.018050069 -0.10612865 0.07731048 -0.076436736
-0.09788661 0.017508162 0.13194685 -0.12225254 0.097926445 0.14264758 0.1734999 -0.1222627
0.043789055 -0.118280366 0.14992645 -0.082867675 0.11762588 0.037195105 0.005638654 -0.020883063
0.045144387 0.08790893 0.054889377 0.044316404 -0.18132849 0.14192075 0.19927117 0.17972942
0.14851658 -0.11260618 -0.06404174 0.17526238 -0.15320781 0.20297775 -0.12689714 -0.14951876
0.06848049 -0.103820674 -0.02685492 0.15780593 0.16105792 0.1669629 -0.022862796 -0.20007436
0.2024728 -0.053974066 -0.044732038 0.064151704 -0.11678883 0.13511388 0.10555741 -0.1364985
-0.2085637 -0.0038686818 0.06785598 -0.009617122 -0.07980496 0.015172383 -0.16788805 -0.14367272
-0.14842431 0.15471496 0.179387 -0.059468832 0.011461792 0.08327753 0.03056804 -0.10483089
00000000: 2116 cc3d 9e7b c0bd 7403 0abd 30c4 aa3d
00000010: 0648 23be 4af2 e33d 6463 3abd 4208 b43d
00000020: 6bdf ec3b 9953 30bd 2b09 9d3d d31c 053d
00000030: 66ac 203d cba0 90bd ccde 11bd d337 7dbb
00000040: 21da 953d 33b8 33bc fd58 183e 6e5e aa3d
00000050: 1455 47bd 8acf 16be 435c e4bc b833 d6bd
00000060: f975 45bd a231 5f3d 420f d63d 058c d13d
00000070: 4236 38be aa66 0c3e 94c6 513d 318a 303e
00000080: b8ba fb3d 8cc0 35be 61db 6ebe 0964 e6bd
00000090: 5210 193e 2bab 46bc 9ead 513d e582 b3bd
000000a0: 0231 2a3e 48fe a0bd 3a0e 243e 83af 8bbc
000000b0: e4b8 03be 929d a23d 3065 a8bd 4d55 d03c
000000c0: 8253 5cbd 9421 33bd 0f94 3abe f564 9bbd
000000d0: 5247 ae3d 4d9c 97bd adcd 5d3e bbd4 1e3e
000000e0: 3e9f 1abd d94d 1cbe 4f74 ff3d f274 5d3d
000000f0: 3465 dabd acb3 fe3d ab48 8a3d f912 2b3e
00000100: 6455 e2bd 5ab4 99bc 631f a8bc b858 e23c
00000110: a468 41be 38d1 e2bd 1a2a c93d e047 72bd
00000120: 9522 b93d 4c95 083c 88dc 9b3d 7b15 d13c
00000130: d153 8e3d 5658 573d 9216 1cbe 4424 b93d
00000140: 41ee 18be 861c 28be 8444 fb3c 61c0 2cbd
00000150: d440 f53d 9a87 01be 919b 1ebe fdf2 1d3e
00000160: ca7d 6ebc 85b1 993d 3099 733d 9b45 20be
00000170: d7fa 6f3d bece 413d 75c8 e8bd a327 a5bd
00000180: 31d4 943d 4202 4b3d 8dc8 a3bd 9d73 78bd
00000190: 40ff 273e 6c6f 80bc 0f71 e03d 46c7 c93d
000001a0: 9beb e8bd 9a63 20be 0ca0 4c3e eba9 433c
000001b0: f243 1d3e eed8 dc3c 717c 983d 1749 153e
000001c0: ceaa 4a3e fed0 05be 8c21 013d c5e3 1e3e
000001d0: 1751 0d3e 3703 e43d 866a 00be 587c febd
000001e0: e3b9 eabd 632d 5a3d a0fb 223e 760e e8bd
000001f0: 943d bc3d fb88 b9bd 01b4 41be 0868 ddbc
00000200: 753a 003e 49c9 383e 2c31 b9bd 1f60 153c
00000210: ed80 323e 6763 ef3d c025 0b3e 8d11 143e
00000220: 72f2 d83d bf55 433d 6be1 0abe 9a83 2ebe
00000230: eb50 e6bd e889 22bd 0811 c0bd 348c 8c3d
00000240: c2d8 0d3d fb20 7abd cde6 4e3d 8022 983d
00000250: 11c8 083e ba45 f33d a34d 91bd 77c3 373e
00000260: 9b0a 48bc 5133 01bd e1e6 4bbe bad7 16be
00000270: 4180 cdbd 3da8 87bd cf09 013e cb9f 8cbd
00000280: 2d0b 1cbe d036 ac3d 015a 523d e39c f23d
00000290: a3fa 8cbd 172f 933d 121e aabd 1a91 8fbd
000002a0: 2a8a 25be ac3b c8bd 8fba c5bc 66de 913d
000002b0: ac0d 183d 5974 b83c b2f3 423e d2ad 493e
000002c0: 434f f43d 9076 2ebc 7693 09be c536 0e3e
000002d0: 7f79 72bd 37b1 5ebc 6566 43be 98bd 22bd
000002e0: 87fe eabd 24d1 283e b292 3bbe 79db 1abe
000002f0: bddd 93bc fa59 d9bd f554 9e3d dd8a 9cbd
00000300: c678 c8bd 476d 8f3c 131d 073e 8a5f fabd
00000310: a98d c83d 3512 123e f5a9 313e de64 fabd
00000320: 275c 333d fa3c f2bd 5286 193e 87b6 a9bd
00000330: d6e5 f03d e559 183d 75c4 b83b f512 abbc
00000340: 52e9 383d 9909 b43d afd3 603d 1e85 353d
00000350: 2dae 39be ac53 113e be0d 4c3e fd0a 383e
00000360: bb14 183e 129e e6bd 5128 83bd fb77 333e
00000370: 82e2 1cbe 66d9 4f3e 53f1 01be 721b 19be
00000380: 803f 8c3d ef9f d4bd d9fe dbbc e197 213e
00000390: 5eec 243e 53f8 2a3e c24a bbbc 4be0 4cbe
000003a0: 0855 4f3e e913 5dbd f138 37bd f861 833d
000003b0: fb2e efbd 4b5b 0a3e 7c2e d83d 43c6 0bbe
000003c0: b991 55be b689 7dbb 13f8 8a3d 2291 1dbc
000003d0: c870 a3bd 9695 783c d8ea 2bbe f11e 13be
000003e0: 8bfc 17be 996d 1e3e 3ab1 373e 9795 73bd
000003f0: 3dca 3b3c 698d aa3d d469 fa3c 94b1 d6bd

conv1.cnn.bias f4 [12]
0.0612102 -0.059990916 -0.106302194 0.040251657 -0.14230497 -0.02580583 0.08492017 0.06032249
0.16543408 -0.12519139 0.00042303442 -0.06530588
00000000: 8cb7 7a3d 09b9 75bd f7b4 d9bd ecde 243d
00000010: 65b8 11be bf66 d3bc a0ea ad3d b714 773d
00000020: 8d67 293e 2c32 00be b8ca dd39 17bf 85bd

conv1.gate.weight f4 [12, 3, 3, 3]
-0.122300886 -0.14032327 0.0471795 0.017227571 -0.06840789 -0.14810841 -0.1382845 0.1752704
-0.03216339 -0.050111547 -0.07681628 -0.0730206 -0.15772277 -0.14219649 0.14220244 0.04120118
-0.049588967 -0.07960859 0.11732788 0.13268481 0.20864376 0.07440732 0.06377057 0.009124159
-0.11347935 -0.1702419 0.11034108 -0.10031008 0.064019956 -0.028548902 -0.14845647 -0.06491964
0.09595992 -0.022126235 -0.13959152 0.09215194 -0.02917122 -0.039915126 0.10118448 0.036172967
-0.059449606 0.16560312 0.08991323 0.061984353 0.03984019 -0.19955568 0.17052998 -0.026219696
-0.12883866 0.13493207 0.0610588 0.040991507 -0.00034011735 0.016741104 0.065249346 0.13966362
0.07592857 -0.07564657 0.17593187 -0.018496523 0.14361893 0.038695764 0.14974469 0.111048274
-0.07182043 0.11929194 -0.0056719277 -0.19566502 -0.042327143 -0.16310702 -0.094851606 -0.17092219
0.13162823 -0.014138291 -0.049148627 0.08532161 0.037128586 -0.12901615 0.08152207 0.08661435
-0.18760245 0.17828436 -0.09297511 -0.08501835 -0.1376561 0.17603517 0.029336613 0.17269936
0.039264325 0.12234017 -0.027078573 -0.14631832 0.008850778 0.034865364 0.000719006 -0.104540974
-0.04196261 0.07782338 0.10703761 -0.12066026 0.10019778 -0.002253419 0.18476808 0.15615667
-0.16157804 0.13886295 -0.16671035 0.1482522 0.038121138 0.058362745 -0.091063485 0.14541566
-0.14457692 -0.13680576 0.07201298 0.10466907 0.21787283 -0.008928815 0.18584412 0.04541843
-0.10273413 -0.1324657 0.07636456 -0.0894939 0.1041738 -0.17241488 0.151614 0.05839254
-0.10034665 0.08097712 -0.12102937 -0.07364318 0.017830769 -0.09530458 -0.056762233 -0.046631616
0.19464114 0.19894181 0.14504555 0.16196257 -0.17522717 0.089385614 0.0838669 -0.16961122
0.07983744 -0.12473934 0.054475028 0.07887625 0.1993933 -0.0866485 -0.13954286 0.15039358
0.075159185 0.09536936 0.048962906 -0.044247318 0.13089356 -0.13468638 0.041098647 0.09885867
0.10381729 -0.101729184 -0.10932245 0.06423819 -0.14807652 -0.18670718 -0.14278318 -0.0930158
-0.031954452 -0.10239628 -0.099626064 -0.17583916 0.1288251 -0.02772764 -0.12650903 0.054822717
-0.12440808 0.1510709 0.115004614 -0.20680612 -0.15648992 -0.116375744 -0.087841846 0.018960828
-0.18558346 -0.12319048 0.104249135 -0.05868455 -0.094259076 -0.15749821 0.06789585 -0.0001902957
-0.07357298 -0.113143764 0.049941942 0.006908139 0.0867282 0.04527307 -0.013375781 -0.12835406
0.107022755 -0.053287078 -0.16722383 0.19922756 0.1272269 -0.13374412 -0.09165539 -0.049510363
-0.09049391 0.07437893 -0.1889346 0.13953337 -0.046308458 0.1335183 0.024074093 -0.08018042
0.11718374 -0.10124392 -0.12610152 0.0066497712 0.14907324 -0.07100887 -0.13451812 -0.1583801
-0.0890374 -0.06329921 -0.047136698 -0.0928972 0.0327206 0.011787306 -0.13561906 -0.11052334
0.030374015 -0.006229908 0.13938065 -0.03148749 -0.13932703 -0.16977054 -0.04626491 -0.052498285
0.021339394 -0.053537633 0.06752544 -0.08918727 0.13066693 0.03086745 -0.07367331 0.1760162
0.045129023 -0.1200554 -0.10523846 0.14049995 0.03400749 0.11265431 -0.012800759 0.08956953
00000000: e378 fabd e7b0 0fbe 4b3f 413d d620 8d3c
00000010: 7019 8cbd bba9 17be 749a 0dbe 157a 333e
00000020: c2bd 03bd c441 4dbd db51 9dbd d38b 95bd
00000030: 1482 21be f59b 11be 849d 113e 92c2 283d
00000040: cd1d 4bbd d409 a3bd 9949 f03d 87de 073e
00000050: b6a6 553e dd62 983d 259a 823d 7f7d 153c
00000060: dd67 e8bd e553 2ebe 81fa e13d 5f6f cdbd
00000070: e51c 833d 63df e9bc f904 18be 97f4 84bd
00000080: a286 c43d 1442 b5bc 14f1 0ebe 28ba bc3d
00000090: 7bf8 eebc 0b7e 23bd cf39 cf3d 1b2a 143d
000000a0: 6e81 73bd dd93 293e 6d24 b83d 4ee3 7d3d
000000b0: 782f 233d 5358 4cbe 699f 2e3e b0ca d6bc
000000c0: 48ee 03be a22b 0a3e cb18 7a3d b6e6 273d
000000d0: c751 b2b9 a424 893c 73a1 853d fb03 0f3e
000000e0: 7080 9b3d 97ec 9abd 7c27 343e 0586 97bc
000000f0: d710 133e 737f 1e3d ac56 193e 476d e33d
00000100: 9716 93bd 554f f43d 94db b9bb 695c 48be
00000110: 3a5f 2dbd 8705 27be 8f41 c2bd 3a06 2fbe
00000120: 8dc9 063e 4aa4 67bc 1250 49bd 19bd ae3d
00000130: 2514 183d cf1c 04be 0bf5 a63d dd62 b13d
00000140: db1a 40be 2d90 363e bc69 bebd 1a1e aebd
00000150: b8f5 0cbe 9042 343e 5653 f03c 1ad8 303e
00000160: a1d3 203d 7c8d fa3d e2d3 ddbc 78d4 15be
00000170: db02 113c fcce 0e3d ad7b 3c3a 9419 d6bd
00000180: fce0 2bbd dd61 9f3d 8936 db3d ba1c f7bd
00000190: 7e34 cd3d 19ae 13bb d833 3d3e 89e7 1f3e
000001a0: b774 25be 1732 0e3e 1eb6 2abe 6dcf 173e
000001b0: e924 1c3d c60d 6f3d 7e7f babd d8e7 143e
000001c0: f90b 14be cf16 0cbe 8b7b 933d bd5c d63d
000001d0: 0e1a 5f3e 2a4a 12bc ec4d 3e3e ad08 3a3d
000001e0: 4666 d2bd 17a5 07be 0665 9c3d 9448 b7bd
000001f0: 1359 d53d 878d 30be b340 1b3e 042d 6f3d
00000200: 8b82 cdbd 55d7 a53d 3fde f7bd 3cd2 96bd
00000210: d511 923c 0c2f c3bd 847f 68bd cb00 3fbd
00000220: 0250 473e 67b7 4b3e d286 143e 84d9 253e
00000230: c06e 33be ce0f b73d 69c2 ab3d 90ae 2dbe
00000240: d081 a33d 5777 ffbd 3521 5f3d df89 a13d
00000250: c22d 4c3e c574 b1bd 53e4 0ebe c600 1a3e
00000260: 0fed 993d 0351 c33d 548d 483d ad3c 35bd
00000270: f608 063e 3aeb 09be 0e57 283d 6a76 ca3d
00000280: 299e d43d 6457 d0bd 73e4 dfbd 508f 833d
00000290: 5fa1 17be 2b30 3fbe c135 12be 117f bebd
000002a0: ace2 02bd 24b5 d1bd c008 ccbd 2e0f 34be
000002b0: baea 033e 1325 e3bc 958b 01be c98d 603d
000002c0: aac9 febd 54b2 1a3e 8a87 eb3d fcc4 53be
000002d0: e53e 20be 6856 eebd 6de6 b3bd bd53 9b3c
000002e0: 9709 3ebe 4a4b fcbd 9280 d53d 365f 70bd
000002f0: e70a c1bd 3647 21be fb0c 8b3d 1d8a 47b9
00000300: 6ead 96bd ebb7 e7bd ec8f 4c3d ac5d e23b
00000310: 8e9e b13d 4170 393d 1726 5bbc 3f6f 03be
00000320: bf2e db3d 8d43 5abd b93c 2bbe 4f02 4c3e
00000330: c547 023e 38f4 08be d2b5 bbbd 61cb 4abd
00000340: df54 b9bd fb53 983d 1278 41be d6e1 0e3e
00000350: f0ad 3dbd 05b9 083e 0837 c53c a235 a4bd
00000360: 07fe ef3d f958 cfbd c220 01be 53e6 d93b
00000370: a8a6 183e 196d 91bd 1ebf 09be 652e 22be
00000380: 3e59 b6bd 04a3 81bd 6912 41bd e340 bebd
00000390: 0906 063d 8b1f 413c b9df 0abe 105a e2bd
000003a0: edd2 f83c 4224 ccbb cdb9 0e3e 07f9 00bd
000003b0: bfab 0ebe 54d8 2dbe 4680 3dbd 7108 57bd
000003c0: f4cf ae3c 474a 5bbd c74a 8a3d d1a7 b6bd
000003d0: 8dcd 053e bcdd fc3c 08e2 96bd 973d 343e
000003e0: 36d9 383d 9bdf f5bd 4387 d7bd 38df 0f3e
000003f0: 704b 0b3d 4eb7 e63d 46ba 51bc 3b70 b73d

conv1.gate.bias f4 [12]
-0.18039759 0.16827254 -0.061466698 -0.17852792 0.12205275 -0.047935154 0.17752197 -0.12994978
-0.19347349 -0.1542111 0.09346764 -0.025945917
00000000: 25ba 38be a34f 2c3e 81c4 7bbd 06d0 36be
00000010: cbf6 f93d a757 44bd 52c8 353e 8e11 05be
00000020: ea1d 46be 84e9 1dbe f66b bf3d 888c d4bc

conv2.cnn.weight f4 [48, 12, 3, 3]
-0.05129044 3.3494758e-05 0.013200579 0.0017496819 -0.0131405555 -0.07829401 0.06494756 -0.051145196
0.049815107 0.09059969 -0.06211023 -0.047165226 -0.0053673154 -0.080244385 0.03796718 -0.07662703
-0.028582588 -0.07923919 0.04651203 -0.052072786 -0.12224297 -0.03455596 -0.061126325 -0.10784924
0.05237666 -0.01369172 0.051823623 0.039906815 -0.020927107 -0.07723171 -0.042393796 0.05967802
0.002231602 -0.03318456 0.05530078 0.07371004 0.07652335 -0.053013425 -0.046233017 -0.041168194
0.07973658 -0.016298875 -0.02504856 0.0029189673 -0.043934904 0.030945368 0.042453878 -0.060899314
0.08521502 0.076516986 -0.005552109 -0.09077496 0.022792144 0.07435496 0.021334186 -0.06035886
0.014917982 -0.034402978 0.097296156 0.08753679 -0.037275955 -0.08404776 0.07874817 0.042794384
0.04398751 -0.05782333 0.014350119 0.014265969 -0.11856094 -0.056093547 -0.0034847427 0.061156187
-0.07537224 0.02010402 0.08252177 0.037591733 0.06494443 -0.0050804596 0.06300247 0.07576235
0.024073655 -0.08883372 0.015664354 0.02548956 0.06398994 0.066592135 -0.024526175 0.0018193858
-0.07506416 -0.065311864 0.09903659 -0.09695103 -0.01185597 0.041705854 -0.07095933 0.010674385
0.036978263 0.024032228 -0.044402234 0.012112828 -0.08249363 0.070426114 0.100093886 -0.033686623
0.021674495 -0.039732378 -0.0648081 -0.052313957 -0.023213182 -0.0072872126 -0.03174633 0.026439302
-0.06898891 -0.029734913 -0.076126166 -0.05765757 0.05337434 0.040316366 -0.078588195 -0.041011166
0.023467615 0.014466632 0.08376748 2.8963212e-05 0.06584077 -0.008460343 0.012831652 -0.04792864
-0.011314037 0.083379805 0.10119428 0.090164624 -0.03516582 -0.014476267 0.027337741 0.08194679
-0.11747208 -0.039691083 -0.003939738 -0.06559812 0.039326653 0.00675555 -0.041567113 0.016308587
0.059670553 0.12191979 0.022892373 0.019085499 0.07569544 0.091562316 -0.0701068 0.051854003
0.015377608 -0.01688547 -0.020593515 -0.048017524 -0.061494663 -0.0388662 0.04777323 0.07200284
0.014902592 -0.096578866 0.073476814 -0.049317706 0.08037293 -0.095374435 -0.050329853 0.08551178
0.09810656 -0.019527253 -0.12595667 -0.005470323 0.02424353 -0.045893647 -0.0760989 0.023163896
-0.032764927 0.043244068 -0.10935934 -0.030433089 -0.086069725 -0.0055966824 -0.06513295 0.023513285
-0.05322934 -0.076496 -0.040251955 -0.08323637 0.05336014 -0.024746303 -0.016575236 0.0548704
-0.02194652 0.02548836 -0.004315212 -0.07315533 0.022043552 0.06363328 -0.08044991 0.021790717
0.030924039 -0.00323736 0.01940173 -0.07861861 -0.056583896 0.029833285 -0.057223503 -0.0923342
-0.027601264 -0.050433226 0.030521741 0.08117521 0.044923887 -0.0062072845 0.050038613 0.07937908
-0.012531355 0.029451149 0.084604 0.07029084 0.046048123 0.04322166 -0.048408058 -0.040144514
-0.052850176 0.06616104 -0.015398024 -0.0027810324 -0.07956597 0.039555714 0.0037048438 -0.044581376
0.04063273 -0.08823479 -0.010414308 0.0070990496 -0.08344473 0.077947825 -0.04034882 0.05495981
0.067982964 0.060546193 0.02399422 0.054430272 0.10240163 0.025903784 -0.016170472 -0.019315355
-0.018330537 0.030111913 -0.08102311 0.0596996 0.039020073 -0.093509726 0.032671466 0.04243275
00000000: ed15 52bd b97c 0c38 3e47 583c 9555 e53a
00000010: 7c4b 57bc 9c58 a0bd 3a03 853d a07d 51bd
00000020: ed0a 4c3d 558c b93d 4c67 7ebd 5330 41bd
00000030: 4ee0 afbb 2b57 a4bd 7983 1b3d a2ee 9cbd
00000040: 0826 eabc 2848 a2bd 6683 3e3d 464a 55bd
00000050: 865a fabd 8d8a 0dbd 995f 7abd 10e0 dcbd
00000060: e988 563d 3c53 60bc 0245 543d 5475 233d
00000070: 536f abbc a92b 9ebd 1ea5 2dbd f170 743d
00000080: 1240 123b 88ec 07bd 1283 623d 4af5 963d
00000090: 46b8 9c3d 9b24 59bd d55e 3dbd fb9f 28bd
000000a0: ef4c a33d 3885 85bc a332 cdbc 254c 3f3b
000000b0: 16f5 33bd 2481 fd3c 1ee4 2d3d 8f71 79bd
000000c0: 3685 ae3d f0b4 9c3d 77ee b5bb 39e8 b9bd
000000d0: 97b6 ba3c 6a47 983d 08c5 ae3c da3a 77bd
000000e0: 8d6a 743c 23ea 0cbd 3543 c73d 7d46 b33d
000000f0: acae 18bd 3b21 acbd b846 a13d 2a49 2f3d
00000100: 3f2c 343d 28d8 6cbd c31c 6b3c d0bb 693c
00000110: 14d0 f2bd 59c2 65bd 4860 64bb e97e 7a3d
00000120: c35c 9abd 30b1 a43c 2c01 a93d caf9 193d
00000130: 9601 853d fc79 a6bb 7007 813d 4a29 9b3d
00000140: 1d36 c53c 74ee b5bd 8852 803c 7bcf d03c
00000150: 280d 833d 7561 883d 1eeb c8bc 7578 ee3a
00000160: 3dbb 99bd 3ac2 85bd b2d3 ca3d 438e c6bd
00000170: 8b3f 42bc c2d3 2a3d 2053 91bd 9ee3 2e3c
00000180: 8576 173d 3cdf c43c 1edf 35bd e274 463c
00000190: 6cf2 a8bd 913b 903d 06fe cc3d fcfa 09bd
000001a0: b68e b13c 6bbe 22bd 1cba 84bd 2947 56bd
000001b0: 9229 bebc 92c9 eebb 7108 02bd 3c97 d83c
000001c0: 0f4a 8dbd a296 f3bc 09e8 9bbd 582a 6cbd
000001d0: 0d9f 5a3d c622 253d d9f2 a0bd 53fb 27bd
000001e0: 283f c03c 7405 6d3c 498e ab3d 06f6 f237
000001f0: 87d7 863d 409d 0abc d93b 523c d250 44bd
00000200: 835e 39bc 08c3 aa3d f23e cf3d 3ba8 b83d
00000210: 090a 10bd dd2d 6dbc 66f3 df3c b8d3 a73d
00000220: 3495 f0bd 1e93 22bd eb18 81bb 4f58 86bd
00000230: fc14 213d a95d dd3b 4742 2abd 9699 853c
00000240: 1c69 743d 15b1 f93d c988 bb3c 3159 9c3c
00000250: 3606 9b3d 0685 bb3d 2794 8fbd dd64 543d
00000260: 5df2 7b3c 6653 8abc bbb3 a8bc 06ae 44bd
00000270: d4e1 7bbd 2a32 1fbd ddad 433d 3a76 933d
00000280: 002a 743c 24cb c5bd 037b 963d 5d01 4abd
00000290: 909a a43d ac53 c3bd ad26 4ebd cd20 af3d
000002a0: 18ec c83d 9ef7 9fbc c9fa 00be 6540 b3bb
000002b0: 5e9a c63c fafa 3bbd bdd9 9bbd 36c2 bd3c
000002c0: 8434 06bd b120 313d caf7 dfbd d04e f9bc
000002d0: 5345 b0bd 6064 b7bb 6d64 85bd ef9e c03c
000002e0: 0207 5abd efa9 9cbd 3cdf 24bd d477 aabd
000002f0: 2a90 5a3d c2b8 cabc cac8 87bc c9bf 603d
00000300: 30c9 b3bc f7cc d03c 9f66 8dbb 76d2 95bd
00000310: ae94 b43c 2a52 823d ecc2 a4bd 7282 b23c
00000320: 6954 fd3c e329 54bb 60f0 9e3c cb02 a1bd
00000330: 84c4 67bd ef64 f43c 3163 6abd b719 bdbd
00000340: 0c1c e2bc 1293 4ebd bb08 fa3c 303f a63d
00000350: 1c02 383d 7a66 cbbb 4af5 4c3d 8091 a23d
00000360: 5050 4dbc 8943 f13c dd44 ad3d a5f4 8f3d
00000370: f59c 3c3d 3209 313d 8747 46bd 936e 24bd
00000380: 6d79 58bd 707f 873d fe47 7cbc fb41 36bb
00000390: 7cf3 a2bd 2c05 223d f7cc 723b f69a 36bd
000003a0: 816e 263d 71b4 b4bd c6a0 2abc 259f e83b
000003b0: 12e5 aabd 1ca3 9f3d ce44 25bd 8a1d 613d
000003c0: a73a 8b3d 49ff 773d 878f c43c 47f2 5e3d
000003d0: f2b7 d13d 2c34 d43c f077 84bc 3c3b 9ebc
000003e0: ec29 96bc 42ad f63c 72ef a5bd 9187 743d
000003f0: 83d3 1f3d 0782 bfbd 84d2 053d f7cd 2d3d

conv2.cnn.bias f4 [48]
0.028399566 0.08586851 0.0006677338 -0.029575331 0.049477104 -0.007958374 -0.044847894 -0.04479759
0.04772549 0.00088613585 -0.019905627 0.026910262 -0.09744994 -0.02700561 -0.103665575 -0.014765885
0.022820238 0.02128175 0.015880281 0.019092843 0.026442165 0.008391027 -0.043381236 0.09371911
-0.053178824 0.033697907 0.10097948 0.023803448 -0.0452309 -0.021495651 -0.09371061 -0.06589491
0.012641761 0.08807989 -0.019536488 0.003538245 0.004999047 -0.05145871 -0.052746598 -0.077325
-0.015755797 0.027583864 0.0587806 -0.070636965 0.040533204 -0.07581216 0.038070448 -0.06638025
00000000: 35a6 e83c d4db af3d db0a 2f3a f747 f2bc
00000010: 81a8 4a3d d763 02bc 6db2 37bd ad7d 37bd
00000020: ce7b 433d 924b 683a 2011 a3bc e972 dc3c
00000030: d693 c7bd de3a ddbc 9e4e d4bd 9cec 71bc
00000040: 82f1 ba3c 1157 ae3c 5d17 823c 9868 9c3c
00000050: 3d9d d83c 857a 093c 86b0 31bd ceef bf3d
00000060: 0ad2 59bd d106 0a3d 54ce ce3d 73ff c23c
00000070: 0944 39bd a617 b0bc 59eb bfbd e9f3 86bd
00000080: 641f 4f3c 3b63 b43d fc0a a0bc e7e1 673b
00000090: 0ccf a33b 5ec6 52bd d10c 58bd 925c 9ebd
000000a0: 4d12 81bc 8ef7 e13c edc3 703d 1daa 90bd
000000b0: 2506 263d 6843 9bbd c2ef 1b3d 5ef2 87bd

conv2.gate.weight f4 [48, 12, 3, 3]
-0.043877993 -0.098257475 0.08244041 -0.071864076 0.066651344 0.09289859 -0.06501967 0.05512073
0.069762625 -0.074715205 -0.054912403 0.075351365 -0.05029448 0.058249954 -0.07077595 0.023049846
-0.043836467 0.036090057 -0.029622644 -0.05147563 0.009805411 -0.026552541 0.004977937 -0.073332466
0.069051616 0.09394615 0.06267828 -0.06690547 -0.07255722 -0.070253715 0.0035469024 0.002098446
0.015032252 0.044235725 0.05500208 0.03470805 0.038270112 -0.032954633 -0.056597907 -0.023648556
-0.08714149 0.028530354 -0.107598074 0.09105299 0.068483725 0.018336652 -0.057426646 -0.026008068
0.015432305 0.04060966 0.08019254 0.02109118 0.054273713 -0.013033546 -0.08184435 -0.05013905
-0.02195377 0.0010898475 -0.017176978 0.026660124 0.097804636 -0.047159847 0.06271152 -0.023484843
0.048984546 -0.08336065 -0.011788518 0.07657588 -0.03847785 -0.047098942 0.02175261 -0.08160655
-0.060911402 -0.017872289 0.04150951 -0.049860258 0.05396091 -0.1058525 0.06619108 -0.07881355
0.035306744 -0.054334093 -0.08001931 0.08651303 0.035277992 -0.088657625 -0.087101065 -0.017713726
0.042361993 0.052263938 0.039136123 0.037553497 -0.06548578 0.04809806 -0.021741193 -0.0939591
-0.086558856 -0.010351452 -0.04599458 -0.018177014 0.08938211 -0.01989148 -0.06167038 0.075023614
0.08338599 0.007162195 -0.0025455616 0.03288519 -0.00088682864 0.014155969 0.0531559 0.047470104
0.04035075 0.023807539 -0.011219628 0.11911969 0.025625896 0.041233912 0.07828924 0.026745668
-0.03691195 0.044761006 -0.060724247 0.03026086 -0.0033490444 0.0258762 0.056972932 -0.065413795
-0.08914406 0.035742532 -0.07657168 -0.037833553 0.0568785 0.028674651 0.09863122 -0.115822285
0.050120384 -0.034118127 0.034246728 0.07227001 0.04355934 -0.10146677 -0.05250406 0.07238232
-0.024912732 -0.06348434 0.045487855 0.020239512 -0.046826042 -0.029204268 -0.042252257 -0.08454742
-0.020773321 -0.040296737 -0.002875678 0.055852093 0.057126656 0.057804197 0.046147265 0.07826736
0.045954328 -0.042686693 0.04304202 0.03213458 -0.071396604 -0.0057023196 -0.041639592 0.06007733
-0.056521095 0.07004637 0.008842575 -0.004815566 0.013401801 0.041313615 0.030157365 0.023744555
-0.014238735 -0.029829944 0.050575476 -0.0015763412 0.08056846 0.023311999 -0.055312224 -0.012632553
-0.006068971 0.041807473 0.06533984 0.007006803 -0.054460783 -0.0067140977 -0.01899934 0.024038518
0.024011482 0.0111719165 -0.06616342 0.010584912 0.094703496 0.006719979 0.06313729 -0.09864953
0.022011967 0.077007614 0.015721915 -0.0027773222 0.033678092 -0.093792744 0.008705541 0.0059982715
0.06520851 -0.012559778 0.10322657 -0.03604729 -0.03554146 0.044901803 0.012351589 -0.11064413
-0.053092316 -0.03436616 0.059458416 0.026082676 -0.010215145 -0.114216864 0.0994806 -0.008659363
0.07670688 -0.062619835 0.0095382575 0.026914753 0.10563664 -0.04234747 -0.10782929 -0.01241722
0.055003088 -0.024647087 -0.06661105 -0.03781423 0.074075915 -0.053298596 0.053596128 0.096634835
0.019434316 0.10367489 -0.03006047 0.016654365 -0.023710215 0.0010502886 0.025142534 0.042843096
0.040029842 0.06862426 0.09046333 -0.06655164 0.04862756 -0.05662573 0.06225369 -0.074620605
00000000: 69b9 33bd 373b c9bd 85d6 a83d 792d 93bd
00000010: 8080 883d 9e41 be3d 0829 85bd 46c6 613d
00000020: b5df 8e3d 4904 99bd d4eb 60bd d151 9a3d
00000030: 9601 4ebd 8197 6e3d fbf2 90bd 08d3 bc3c
00000040: de8d 33bd 2bd3 133d 30ab f2bc 1cd8 52bd
00000050: e0a6 203c b784 d9bc f61d a33b 552f 96bd
00000060: ef6a 8d3d d766 c03d 785d 803d bc05 89bd
00000070: e198 94bd 2ee1 8fbd 2673 683b 1586 093b
00000080: d649 763c 8530 353d dc49 613d 072a 0e3d
00000090: 1fc1 1c3d 70fb 06bd 35d3 67bd 9eba c1bc
000000a0: 3d77 b2bd 7db8 e93c 615c dcbd fd79 ba3d
000000b0: 3241 8c3d bf36 963c 3438 6bbd df0e d5bc
000000c0: c7d7 7c3c 5156 263d fd3b a43d 69c7 ac3c
000000d0: 1d4e 5e3d a78a 55bc 039e a7bd 9b5e 4dbd
000000e0: 65d8 b3bc 37d9 8e3a bcb6 8cbc 5566 da3c
000000f0: cc4d c83d af2a 41bd e66e 803d 4963 c0bc
00000100: 05a4 483d fdb8 aabd a124 41bc d1d3 9c3d
00000110: f39a 1dbd d2ea 40bd 8832 b23c 5621 a7bd
00000120: 3c7e 79bd e868 92bc e005 2a3d 453a 4cbd
00000130: 1d06 5d3d 32c9 d8bd 308f 873d 0069 a1bd
00000140: ce9d 103d 6d8d 5ebd 2ae1 a3bd be2d b13d
00000150: a87f 103d 2192 b5bd 0b62 b2bd 601c 91bc
00000160: c583 2d3d b612 563d 334d 203d b2d1 193d
00000170: 691d 86bd 7902 453d 961a b2bc a16d c0bd
00000180: c545 b1bd 2399 29bc d064 3cbd f6e7 94bc
00000190: f80d b73d 75f3 a2bc 159a 7cbd fba5 993d
000001a0: 46c6 aa3d d9b0 ea3b 70d3 26bb 9fb2 063d
000001b0: 107a 68ba 70ee 673c 00ba 593d 0370 423d
000001c0: d446 253d 0708 c33c 88d2 37bc 06f5 f33d
000001d0: 66ed d13c e4e4 283d 1c56 a03d bb19 db3c
000001e0: fc30 17bd 5157 373d fdb9 78bd a0e5 f73c
000001f0: a47b 5bbb 53fa d33c 735c 693d abf7 85bd
00000200: 2991 b6bd c366 123d 9dd1 9cbd 5bf7 1abd
00000210: 6ef9 683d 1ae7 ea3c 2aff c93d 3c34 edbd
00000220: 084b 4d3d 73bf 0bbd 4c46 0c3d 4d02 943d
00000230: 476b 323d cfcd cfbd 7f0e 57bd 2f3d 943d
00000240: c915 ccbc 1404 82bd 7951 3a3d 55cd a53c
00000250: aacc 3fbd ca3d efbc b410 2dbd 3327 adbd
00000260: d02c aabc 310e 25bd df75 3cbb 2ac5 643d
00000270: a4fd 693d 18c4 6c3d ea04 3d3d a34a a03d
00000280: 9b3a 3c3d 3ed8 2ebd d44c 303d 8d9f 033d
00000290: 6238 92bd 86da babb 478e 2abd a513 763d
000002a0: aa82 67bd 7974 8f3d 73e0 103c e5cb 9dbb
000002b0: 3a93 5b3c 7738 293d 940c f73c f183 c23c
000002c0: 9549 69bc ed5d f4bc 3b28 4f3d 3c9d ceba
000002d0: 1401 a53d cef8 be3c 128f 62bd c4f8 4ebc
000002e0: 38de c6bb 503e 2b3d e5d0 853d 5399 e53b
000002f0: 4512 5fbd ef01 dcbb 81a4 9bbc 6dec c43c
00000300: bab3 c43c 6a0a 373c b080 87bd 576c 2d3c
00000310: e8f3 c13d 4533 dc3b 204e 813d c408 cabd
00000320: 7152 b43c 2bb6 9d3d 3fcb 803c bc03 36bb
00000330: 0af2 093d 6916 c0bd afa1 0e3c 268d c43b
00000340: 0a8c 853d 87c7 4dbc 7468 d33d 53a6 13bd
00000350: ec93 11bd f4ea 373d 525e 4a3c 6499 e2bd
00000360: 5477 59bd 88c3 0cbd ab8a 733d 56ab d53c
00000370: 6c5d 27bc 88ea e9bd 7cbc cb3d 00e0 0dbc
00000380: 7f18 9d3d d43e 80bd 5a46 1c3c 547c dc3c
00000390: 0658 d83d 8a74 2dbd 9ad5 dcbd 9871 4bbc
000003a0: eb4a 613d b0e8 c9bc 606b 88bd 18e3 1abd
000003b0: 1db5 973d a14f 5abd 9d87 5b3d 7ce8 c53d
000003c0: b734 9f3c 8053 d43d 6041 f6bc bc6e 883c
000003d0: ed3b c2bc d6a9 893a b7f7 cd3c 3e7c 2f3d
000003e0: 55f6 233d e08a 8c3d d744 b93d 3a4c 88bd
000003f0: b12d 473d 62f0 67bd bafd 7e3d b0d2 98bd

conv2.gate.bias f4 [48]
0.04915812 -0.004109632 -0.060071327 -0.10118892 -0.026489891 -0.038337436 -0.06955674 0.062970474
0.031204006 -0.028213205 0.012194718 0.0059736553 -0.018999964 0.0058219535 0.06502962 -0.09506146
0.04905777 -0.08493331 -0.07129298 -0.03368725 -0.03398703 -0.0684652 -0.07222909 0.04748982
0.027524155 0.052297637 -0.051085167 -0.09360521 -0.013468825 0.029491056 -0.011603915 -0.05918872
-0.036604643 0.02985387 -0.004569531 0.07239529 -0.010915418 -0.08227947 -0.07830809 0.048870195
0.093625546 -0.04617457 0.043457337 -0.015868574 -0.032260712 0.039251834 -0.06725815 -0.046813708
00000000: 065a 493d 18aa 86bb 5a0d 76bd 233c cfbd
00000010: 5401 d9bc b707 1dbd c473 8ebd aaf6 803d
00000020: 8b9f ff3c 611f e7bc 5bcc 473c a7be c33b
00000030: d0a5 9bbc 16c6 be3b 402e 853d 95af c2bd
00000040: cdf0 483d 84f1 adbd 0e02 92bd a4fb 09bd
00000050: fc35 0bbd 7c37 8cbd d8ec 93bd af84 423d
00000060: 567a e13c 0c36 563d ae3e 51bd 17b4 bfbd
00000070: 59ac 5cbc 3a97 f13c 591e 3ebc df6f 72bd
00000080: c0ee 15bd 1a90 f43c 01bc 95bb fb43 943d
00000090: 95d6 32bc 2482 a8bd fe5f a0bd 1d2c 483d
000000a0: c0be bf3d 8c21 3dbd 5200 323d d0fe 81bc
000000b0: cf23 04bd 88c6 203d a4be 89bd bbbf 3fbd

conv3.weight f4 [192, 48, 2, 2]
-0.035682324 -0.021457376 -0.036420442 -0.08725383 0.036963712 0.014353128 0.030987298 0.12141102
-0.14383619 -0.005961909 0.086787276 -0.0041560098 0.09464163 -0.050251268 -0.06168857 -0.009601767
-0.05850472 0.00017105482 -0.073249236 0.08112853 -0.023810714 0.10007792 -0.1198415 -0.060138512
0.03031882 -0.036935918 0.10155574 -0.09168751 -0.07861195 0.010256563 0.0918624 -0.016417593
-0.019162197 0.034887306 -0.015648548 0.058681935 0.043180037 -0.051925402 -0.07026189 0.08004541
-0.0017555074 0.056744687 -0.047013734 0.02600137 -0.067891754 -0.03699708 0.0011058856 -0.020462997
-0.033545624 0.09177551 -0.021492185 -0.07242332 -0.037868544 0.03179216 0.101974316 0.008951889
0.06802916 0.029607024 -0.07691861 -0.02522983 0.06349537 0.008468141 -0.07941868 -0.077659026
0.046822615 0.117381126 -0.005052559 0.022650385 -0.0698773 0.0026575539 0.066587135 -0.0872879
0.044138215 -0.015771529 0.038665812 -0.015597315 0.012802018 -0.10329234 0.0918734 0.070449896
-0.049780656 -0.0338422 -0.09967915 -0.048481047 -0.10509504 0.02823143 0.028532226 0.01745771
0.011227267 0.07729877 -0.038935557 -0.039287973 -0.043089006 0.07447547 0.058599416 0.05815042
-0.017690396 -0.072675325 -0.034974955 0.050362755 0.063840464 0.087988004 -0.11004753 -0.024269817
-0.06661619 0.06350896 0.017105715 0.022972273 -0.05228579 -0.010132829 0.028741261 -0.02785123
0.034616668 0.017889462 -0.044260614 -0.04427806 0.05273407 -0.0988139 0.075360894 0.03177396
-0.06961599 0.020634195 -0.022776995 -0.036239423 0.06478558 -0.051538456 0.057233926 0.03480149
-0.08735019 0.041620303 -0.042034328 -0.049161218 0.024892751 -0.039340604 -0.033319313 -0.05381141
-0.03747295 0.09735044 -0.09191249 0.006114805 -0.08782565 0.01812253 0.037525885 -0.085160464
0.054457888 -0.0848811 0.07436209 -0.00014785209 -0.06362938 -0.097434215 -0.015566909 0.07476718
-0.024456553 0.046157833 0.04381702 -0.123272635 0.0479491 -0.04931797 0.035774726 0.12958731
-0.017469807 0.060202207 -0.048827425 -0.01342479 0.04595171 -0.03619389 0.015679358 0.0058245715
-0.0053728903 -0.090071134 0.1255915 -0.0016624897 -0.053704925 -0.060301665 0.07533752 0.1268988
-0.095650464 -0.010767042 -0.0047537913 -0.0617889 -0.001806049 -0.015562439 -0.009529524 0.033774734
-0.08029289 0.063551344 0.022808399 -0.03932753 0.043126162 0.085130714 0.06657444 -0.033949453
-0.025521722 0.03686213 0.0268086 -0.119438164 0.037008014 0.012254716 -0.0950403 0.017829489
-0.09380226 0.06904635 0.111650586 -0.027257103 0.04823288 0.0036108997 -0.04145449 0.03722148
0.054276735 0.04061458 0.030397283 -0.046234455 -0.0071970513 0.07097684 -0.11859474 0.0058903373
-0.064554386 0.06750055 0.0556113 0.034656882 -0.037680574 -0.017240968 0.046106607 -0.11215323
-0.122375846 0.016373975 -0.04679 0.042421088 0.057315864 -0.095587574 -0.06261155 0.027982583
0.03525195 0.038945325 -0.08078623 -0.0029561028 -0.057480913 -0.03424786 -0.029439399 0.118153945
0.002910442 0.044758834 -0.03512807 0.068919644 -0.10342132 0.017908312 -0.009320139 0.08183636
0.040324237 0.07553598 -0.01636446 -0.050320804 -0.053036347 0.0703631 -0.04970711 -0.0966485
00000000: a127 12bd 61c7 afbc 9a2d 15bd 23b2 b2bd
00000010: 4367 173d 6229 6b3c 13d9 fd3c 57a6 f83d
00000020: cb49 13be 1e5c c3bb 87bd b13d 232f 88bb
00000030: 79d3 c13d 46d4 4dbd 27ad 7cbd bb50 1dbc
00000040: a5a2 6fbd 2e5d 3339 b203 96bd b726 a63d
00000050: b00e c3bc a7f5 cc3d 766f f5bd cd53 76bd
00000060: 2d5f f83c 1e4a 17bd 75fc cf3d a9c6 bbbd
00000070: 4dff a0bd 250b 283c 5b22 bc3d 307e 86bc
00000080: 0afa 9cbc fee5 0e3d 6231 80bc 785c 703d
00000090: 8ddd 303d bbaf 54bd 77e5 8fbd d9ee a33d
000000a0: 0e19 e6ba 1e6d 683d 7991 40bd d300 d53c
000000b0: d50a 8bbd 408a 17bd 5df3 903a 04a2 a7bc
000000c0: 2367 09bd ccf4 bb3d 6110 b0bc ad52 94bd
000000d0: 0c1c 1bbd 7f38 023d e9d7 d03d f2aa 123c
000000e0: df52 8b3d 6e8a f23c 8187 9dbd caae cebc
000000f0: dc09 823d f5bd 0a3c 43a6 a2bd b20b 9fbd
00000100: 12c9 3f3d 8465 f03d f08f a5bb 4d8d b93c
00000110: d41b 8fbd 5b2a 2e3b d65e 883d 00c4 b2bd
00000120: 46ca 343d 4b33 81bc 0b60 1e3d e18b 7fbc
00000130: 8ebf 513c ef8a d3bd 1f28 bc3d 0948 903d
00000140: cde6 4bbd 1e9e 0abd 9524 ccbd 1094 46bd
00000150: 113c d7bd 9a45 e73c 6abc e93c 7903 8f3c
00000160: 92f2 373c d14e 9e3d e47a 1fbd 6dec 20bd
00000170: 197e 30bd 9886 983d f105 703d 232f 6e3d
00000180: 73eb 90bc cdd6 94bd e641 0fbd 2d49 4e3d
00000190: cabe 823d 0e33 b43d 9960 e1bd 7fd1 c6bc
000001a0: 126e 88bd fc10 823d 4921 8c3c 5930 bc3c
000001b0: a029 56bd 2a04 26bc cb72 eb3c 4328 e4bc
000001c0: 35ca 0d3d ec8c 923c 9e4a 35bd e95c 35bd
000001d0: aeff 573d f15e cabd d056 9a3d 6925 023d
000001e0: d492 8ebd 0b09 a93c d296 babc ca6f 14bd
000001f0: 4dae 843d fd19 53bd 1f6e 6a3d 028c 0e3d
00000200: a8e4 b2bd 0d7a 2a3d 302c 2cbd 465d 49bd
00000210: e2eb cb3c 9d23 21bd d579 08bd 5a69 5cbd
00000220: 3c7d 19bd ab5f c73d 9e3c bcbd b45e c83b
00000230: efdd b3bd b375 943c beb4 193d 9c68 aebd
00000240: 3c0f 5f3d 24d6 adbd 274b 983d be08 1bb9
00000250: 1f50 82bd 978b c7bd 590c 7fbc 891f 993d
00000260: 1c59 c8bc ff0f 3d3d 7a79 333d 5d76 fcbd
00000270: 4766 443d a401 4abd 8588 123d 89b2 043e
00000280: d71c 8fbc 9796 763d 44ff 47bd a7f3 5bbc
00000290: dc37 3c3d 0b40 14bd ff71 803c 0cdc be3b
000002a0: 120f b0bb 3777 b8bd 0f9b 003e e6e7 d9ba
000002b0: b2f9 5bbd e1fe 76bd 8f4a 9a3d c2f1 013e
000002c0: 64e4 c3bd 3f68 30bc b1c5 9bbb 5c16 7dbd
000002d0: f3b8 ecba 9af9 7ebc b821 1cbc 6057 0a3d
000002e0: 9970 a4bd 3527 823d aed8 ba3c e715 21bd
000002f0: 0fa5 303d 0359 ae3d 2e58 883d 950e 0bbd
00000300: ee12 d1bc bffc 163d b69d db3c ff9b f4bd
00000310: b795 173d 01c8 483c 7da4 c2bd 260f 923c
00000320: 661b c0bd 2c68 8d3d 10a9 e43d 4a4a dfbc
00000330: d78f 453d d8a4 6c3b 2fcc 29bd 8d75 183d
00000340: 4851 5e3d 795b 263d b903 f93c 5760 3dbd
00000350: 3ed5 ebbb 4e5c 913d cde1 f2bd bb03 c13b
00000360: 1735 84bd ba3d 8a3d adc8 633d 60f4 0d3d
00000370: f256 1abd ee3c 8dbc 48da 3c3d 98b0 e5bd
00000380: 30a0 fabd b722 863c dfa6 3fbd bcc1 2d3d
00000390: 0ac4 6a3d 6bc3 c3bd 7c3a 80bd bb3b e53c
000003a0: 5964 103d 2285 1f3d 4073 a5bd 2dbb 41bb
000003b0: 1b71 6bbd 7c47 0cbd e52a f1bc b2fa f13d
000003c0: 1dbd 3e3b 0a55 373d 73e2 0fbd be25 8d3d
000003d0: 8fce d3bd 74b4 923c 7fb3 18bc d299 a73d
000003e0: 072b 253d 9cb2 9a3d c30e 86bc 301d 4ebd
000003f0: a43c 59bd 871a 903d af99 4bbd a6ef c5bd

conv3.bias f4 [192]
0.0018120453 -0.0056666806 0.0066267457 0.01505746 -0.024805527 0.05706235 0.03286317 -0.04331946
-0.028010583 0.03014537 0.06198015 -0.036767446 0.002259643 0.07066668 0.021088589 0.010295031
0.018494638 0.029157022 -0.07554902 0.05347511 0.02669951 0.05763309 0.06303479 0.03431188
-0.048785858 -0.000112457645 -0.04934439 0.073828824 0.05033054 0.010656779 0.081507646 0.06763626
0.074275546 0.029609744 0.07597617 0.08891238 -0.016745828 0.080610275 0.078250825 0.008093014
0.0795734 0.035183962 0.10264208 0.024297062 0.052218594 0.068686984 0.06182954 0.07519972
-0.01570136 0.03785021 0.03001859 0.0017636116 0.0013916357 0.026787914 0.066418864 0.05348912
0.055782955 0.08775481 0.037661817 0.095656686 0.045377523 0.06537556 0.04293016 -0.07351215
0.017489528 -0.01774243 -0.048645787 -0.0023429915 -0.038293768 0.01960023 -0.05427489 0.06406609
0.045120496 -0.014915921 0.056356497 -0.026468487 0.06513366 0.028273521 -0.038445685 0.07281102
-0.029168963 -0.031817395 -0.051843803 -0.007825927 0.0058638295 0.034475442 0.0057035214 0.08371869
0.08552754 -0.022862868 -0.067442484 0.02166965 -0.031719357 0.04733954 -0.026789807 -0.007246216
0.053785685 0.075869285 0.018401075 -0.024712803 0.06958025 0.026241977 0.059830267 0.0069612996
0.09370966 0.09702017 0.025713883 -0.015328468 0.010391539 0.067233 -0.0013819023 0.042091783
0.0049571977 -0.04640268 0.02553993 0.006037209 0.043777376 -0.03191715 0.046468254 -0.012246302
0.075931236 -0.02883058 -0.020214051 0.010251189 0.08651453 -0.023025885 0.05489507 -0.013854666
-0.038704675 0.09417454 -0.024604792 0.015163273 0.062336486 0.049277835 -0.00814191 0.04651604
0.052473728 0.00278838 0.04923519 0.035298917 0.1106137 -0.026596308 0.09660337 0.037494533
0.0365665 0.02232942 0.06928974 -0.036764376 -0.040581007 0.061008643 0.056250278 -0.06113488
0.02495256 0.061860103 0.08912743 0.038592447 0.053069785 0.05958922 0.0686822 0.05302382
-0.041052498 0.002218878 -0.04041989 0.07617662 0.043579973 -0.013405266 0.09705379 -0.010429991
-0.02903963 -0.026188875 -0.006528718 0.06400452 0.08297705 0.041098054 -0.0010346588 0.08117559
0.09779767 0.07290931 -0.011227519 0.07121661 0.008861371 -0.0002538221 0.018865386 -0.022383973
-0.040007383 -0.031694334 -0.042280115 0.062803976 0.06660945 0.04440269 -0.023217417 -0.021313876
00000000: 2782 ed3a 90af b9bb 2c25 d93b 91b3 763c
00000010: f634 cbbc 36ba 693d 889b 063d bf6f 31bd
00000020: 7376 e5bc 6cf3 f63c e6de 7d3d 7699 16bd
00000030: 8516 143b b1b9 903d fac1 ac3c 7dac 283c
00000040: 1182 973c b5da ee3c 72b9 9abd b808 5b3d
00000050: eeb8 da3c ad10 6c3d 6218 813d 9d8a 0c3d
00000060: aed3 47bd 3dd7 ebb8 581d 4abd 9133 973d
00000070: 6527 4e3d c599 2e3c 7bed a63d e184 8a3d
00000080: c71d 983d 2290 f23c 6599 9b3d b217 b63d
00000090: 8c2e 89bc 0017 a53d f841 a03d 9098 043c
000000a0: 61f7 a23d 0f1d 103d 0336 d23d a20a c73c
000000b0: 2ae3 553d c3ab 8c3d f940 7d3d 5002 9a3d
000000c0: 23a0 80bc d208 1b3d 8ce9 f53c fc28 e73a
000000d0: 8c67 b63a 5472 db3c 9d06 883d 6817 5b3d
000000e0: ab7c 643d cbb8 b33d 4743 1a3d a7e7 c33d
000000f0: c8dd 393d 9fe3 853d 89d7 2f3d 8a8d 96bd
00000100: 3346 8f3c 9358 91bc ce40 47bd e08c 19bb
00000110: edd9 1cbd a990 a03c 594f 5ebd 1535 833d
00000120: 45d0 383d e861 74bc 12d6 663d 71d4 d8bc
00000130: cc64 853d df9d e73c 3979 1dbd f21d 953d
00000140: c0f3 eebc f552 02bd 2b5a 54bd 5138 00bc
00000150: 5e25 c03b 1f36 0d3d 9be4 ba3b b474 ab3d
00000160: 1029 af3d e94a bbbc 491f 8abd 8d84 b13c
00000170: 28ec 01bd 1be7 413d 4c76 dbbc aa71 edbb
00000180: 614e 5c3d 5b61 9b3d dabd 963c 8172 cabc
00000190: 1780 8e3d 6af9 d63c 9510 753d 9d1b e43b
000001a0: daea bf3d 83b2 c63d eca5 d23c 4124 7bbc
000001b0: 4641 2a3c 75b1 893d f220 b5ba 6f68 2c3d
000001c0: fd6f a23b bd10 3ebd 1e39 d13c c8d3 c53b
000001d0: e84f 333d 8fbb 02bd 7f55 3e3d b7a4 48bc
000001e0: d681 9b3d 1c2e ecbc f097 a5bc 9af4 273c
000001f0: 882e b13d c8a0 bcbc a7d9 603d aefe 62bc
00000200: cb88 1ebd 95de c03d fd8f c9bc 606f 783c
00000210: 8b54 7f3d 8ed7 493d a565 05bc 9a87 3e3d
00000220: b1ee 563d 41bd 363b d7aa 493d 9995 103d
00000230: 6f89 e23d 80e0 d9bc fdd7 c53d de93 193d
00000240: c1c6 153d 30ec b63c c7e7 8d3d 3e96 16bd
00000250: 4538 26bd 33e4 793d b166 663d 9168 7abd
00000260: 5069 cc3c 0561 7d3d 7188 b63d 1d13 1e3d
00000270: b45f 593d d313 743d 41a9 8c3d 812f 593d
00000280: aa26 28bd 986a 113b 548f 25bd 7d02 9c3d
00000290: ea80 323d c3a1 5bbc 23c4 c63d 8ee2 2abc
000002a0: 85e4 edbc 0d8a d6bc dbee d5bb cd14 833d
000002b0: dfef a93d 6f56 283d 639d 87ba 633f a63d
000002c0: 254a c83d 7a51 953d a1f3 37bc 04da 913d
000002d0: 492f 113c 6d13 85b9 958b 9a3c 985e b7bc
000002e0: c8de 23bd ebd1 01bd ea2d 2dbd 5f9f 803d
000002f0: 896a 883d 98df 353d 7432 bebc 709a aebc

dense1.weight f4 [32, 192]
-0.08258123 0.013683282 0.03722115 0.024020799 -0.0037552495 0.016233565 0.083615586 0.12580648
0.039692465 0.033166368 0.06941903 0.008074193 0.013527732 -0.0023609195 0.04805331 -0.02707839
0.026932355 0.036752153 -0.122705705 -0.05484568 -0.0066331327 0.020203734 0.032202315 0.08092455
-0.09597125 -0.082815066 -0.044822633 -0.20672385 -0.040098064 0.12481977 0.08744964 -0.08029765
0.0595892 0.05370973 0.11085303 0.051156543 0.032817572 0.061937768 0.08443345 -0.038268648
-0.1250679 -0.02324961 0.081479914 -0.0017961446 -0.12045827 -0.007496821 0.022868069 -0.058117926
0.14211208 0.035385314 0.02580148 0.008520482 0.119639285 -0.10813189 0.12622885 0.12362603
0.06364014 -0.014567833 0.017592294 0.03503729 0.0790692 0.061308697 0.02990182 0.113916226
-0.057598032 0.0367661 -0.008885134 -0.08447852 -0.022861613 0.10333854 0.04855018 -0.033378664
0.12609445 -0.08177697 0.1277026 -0.0824352 0.098535664 0.10397185 0.11049999 -0.09608043
0.03827873 -0.07338929 0.15308215 -0.04552185 0.07410037 0.07891996 0.06272742 0.08070396
-0.031528063 0.023638988 0.04441804 -0.15201071 0.015456986 0.11746825 -0.03195571 0.05257693
0.09203244 -0.02141055 0.13370414 -0.13411658 -0.11432726 0.03571969 0.006164758 0.06687948
0.053065874 0.03601142 -0.029262567 -0.09224987 0.036904942 -0.17250276 0.0011746284 0.07958004
0.020933412 0.0037537888 -0.031436455 0.006517144 0.10031195 0.11753174 0.021717375 0.075889066
0.070039615 0.07948904 0.03397362 0.042851694 0.008711627 0.14043948 0.056674093 -0.055462778
-0.060904056 0.029483408 0.022181142 0.0004799054 0.039106898 0.10222956 0.051294275 0.035694547
-0.10874738 0.069588326 -0.04357019 0.10381672 0.0815707 -0.05064897 0.11090573 0.08385799
0.010418595 -0.080397345 -0.09646891 0.10404554 0.11110144 0.11103826 0.06283112 0.006226224
-0.02000893 0.019983593 0.11848461 0.04993676 0.12530236 -0.13464172 -0.023043038 0.064161256
-0.07447661 0.011161248 0.028952641 0.032296114 0.05256891 -0.16232844 0.1257015 -0.2129
0.0077462113 0.06648663 0.028540418 0.08468725 -0.044663563 0.12240257 0.07437001 0.11503126
0.096398346 0.10711232 -0.042406622 0.05747944 0.008910497 -0.034341622 0.0067875297 -0.045785815
0.07649248 -0.034766193 -0.067910284 -0.106468886 0.047393326 0.07867975 0.12688415 -0.07328932
-0.020519972 0.012132934 0.0172253 0.0013852663 -0.0033022366 0.07116234 0.0049032453 -0.051672906
0.07194638 0.050825637 0.05804958 0.09470648 0.024802804 0.09176966 0.037237376 0.053055324
0.10641221 0.050043344 0.03862736 0.02606285 0.040312275 0.01923767 0.11438745 0.02540908
0.059607666 0.08255786 0.07640869 0.04135873 0.063987866 0.027054548 0.05378324 0.058162086
0.02432397 -0.0005019496 0.054800153 -0.03119161 0.060809247 0.040883146 0.07639332 0.10247789
0.10179226 0.07585019 -0.018096773 -0.053542953 -0.016498497 0.07905277 -0.03767515 0.08596356
0.094757155 0.01579655 0.04774969 0.06416511 -0.059871964 0.052100245 -0.04458918 -0.05633696
-0.019188955 0.07995473 0.011759573 -0.00096678536 -0.055272285 0.08984086 0.100518726 -0.13547543
00000000: 5920 a9bd d82f 603c 3475 183d 44c7 c43c
00000010: a21a 76bb 41fc 843c a63e ab3d 6ad3 003e
00000020: 9194 223d 75d9 073d 902b 8e3d 9f49 043c
00000030: 6ca3 5d3c a8b9 1abb 8cd3 443d 80d3 ddbc
00000040: 3ea1 dc3c 6d89 163d 214d fbbd dda5 60bd
00000050: c05a d9bb 4d82 a53c 93e6 033d c5bb a53d
00000060: 938c c4bd f29a a9bd f097 37bd 6baf 53be
00000070: de3d 24bd 82a1 ff3d cc18 b33d 1873 a4bd
00000080: ce13 743d bcfe 5b3d ea06 e33d 8689 513d
00000090: b86b 063d 75b2 7d3d 72eb ac3d 96bf 1cbd
000000a0: cd11 00be f775 bebc f1de a63d 9d6c ebba
000000b0: d3b2 f6bd e5a7 f5bb d155 bb3c 100d 6ebd
000000c0: d485 113e 31f0 103d a05d d33c 7e99 0b3c
000000d0: 7105 f53d 4174 ddbd 2342 013e a52f fd3d
000000e0: c355 823d ecad 6ebc b71d 903c 4383 0f3d
000000f0: 08ef a13d d41e 7b3d a9f4 f43c e94c e93d
00000100: eaeb 6bbd 0d98 163d f492 11bc 1303 adbd
00000110: 4748 bbbc 28a3 d33d 8edc 463d 11b8 08bd
00000120: e71e 013e af7a a7bd 78c4 023e c9d3 a8bd
00000130: 11cd c93d 31ef d43d d24d e23d d1c5 c4bd
00000140: 28ca 1c3d 204d 96bd 91c1 1c3e 1f75 3abd
00000150: efc1 973d caa0 a13d 3c77 803d 1e48 a53d
00000160: 9223 01bd 8da6 c13c b1ef 353d b2a8 1bbe
00000170: 4c3f 7d3c 3293 f03d fee3 02bd e85a 573d
00000180: 817b bc3d 2e65 afbc bde9 083e db55 09be
00000190: 6924 eabd cf4e 123d bd01 ca3b 1cf8 883d
000001a0: 9a5b 593d b680 133d 0db8 efbc 80ed bcbd
000001b0: a329 173d 90a4 30be fdf5 993a dcfa a23d
000001c0: 8c7c ab3c 2002 763b 83c3 00bd c48d d53b
000001d0: 5a70 cd3d 7bb4 f03d a3e8 b13c ba6b 9b3d
000001e0: ee70 8f3d 26cb a23d ec27 0b3d 4285 2f3d
000001f0: 36bb 0e3c 5ecf 0f3e 1823 683d f02c 63bd
00000200: 8876 79bd 3087 f13c 3ab5 b53c d09b fb39
00000210: 8e2e 203d bb5d d13d f219 523d 7234 123d
00000220: f2b6 debd 5384 8e3d a876 32bd dc9d d43d
00000230: 8a0e a73d 4b75 4fbd 8b22 e33d bdbd ab3d
00000240: c1b2 2a3c 5da7 a4bd 7e91 c5bd d415 d53d
00000250: 2789 e33d 0768 e33d 9aad 803d 5a05 cc3b
00000260: c4e9 a3bc a2b4 a33c 0fa8 f23d 7d8a 4c3d
00000270: 434f 003e 85df 09be c1c4 bcbc fa66 833d
00000280: 3187 98bd abdd 363c 172e ed3c ee48 043d
00000290: 7f52 573d 6d39 26be e5b7 003e 7502 5abe
000002a0: eed3 fd3b 242a 883d 98cd e93c 8270 ad3d
000002b0: 24f1 36bd 33ae fa3d 4e4f 983d 8295 eb3d
000002c0: 7f6c c53d b45d db3d 91b2 2dbd 906f 6b3d
000002d0: 55fd 113c cda9 0cbd ed69 de3b e889 3bbd
000002e0: 17a8 9c3d ff66 0ebd 8c14 8bbd 5c0c dabd
000002f0: 811f 423d d922 a13d ebed 013e b618 96bd
00000300: 8019 a8bc 37c9 463c 131c 8d3c d391 b53a
00000310: 566a 58bb 90bd 913d 67ab a03b f8a6 53bd
00000320: a058 933d 8b2e 503d 65c5 6d3d 79f5 c13d
00000330: 402f cb3c bbf1 bb3d 3886 183d 8a50 593d
00000340: a5ee d93d 40fa 4c3d b937 1e3d c281 d53c
00000350: 7c1e 253d 5198 9d3c f843 ea3d b426 d03c
00000360: 2b27 743d 1814 a93d 297c 9c3d c667 293d
00000370: 120c 833d 80a1 dd3c d14b 5c3d 5e3b 6e3d
00000380: 1043 c73c 4495 03ba 2076 603d 8c85 ffbc
00000390: 1e13 793d 1675 273d 1a74 9c3d eedf d13d
000003a0: 7678 d03d 5857 9b3d af3f 94bc db4f 5bbd
000003b0: db27 87bc 6be6 a13d 4251 1abd aa0d b03d
000003c0: 0a10 c23d c467 813c 2e95 433d ff68 833d
000003d0: 4e3c 75bd 1167 553d 25a3 36bd 96c1 66bd
000003e0: 2832 9dbc 4ebf a33d 39ab 403c de6f 7dba
000003f0: 3165 62bd 7cfe b73d c3dc cd3d 12ba 0abe

dense1.bias f4 [32]
0.060659472 0.08058351 0.030531833 0.05015541 0.012179688 0.10597046 0.036312535 0.025740057
-0.009069468 0.0038473688 -0.016429996 0.022209957 -7.417959e-07 0.09103682 0.034687404 -0.024392182
0.0059588873 0.018488223 -0.013021164 -0.040928178 0.04170239 -0.069296815 0.08631358 -0.0025490527
0.088583216 0.06652257 0.0859634 0.07138874 0.00871508 0.07911621 -9.263841e-05 0.05873769
00000000: 1176 783d f808 a53d e51d fa3c c26f 4d3d
00000010: 508d 473c 0a07 d93d 74bc 143d d0dc d23c
00000020: 1b98 14bc 2324 7c3b 3398 86bc a8f1 b53c
00000030: d31f 47b5 8371 ba3d 6114 0e3d 1dd2 c7bc
00000040: c542 c33b 9d74 973c b856 55bc 4ea4 27bd
00000050: 20d0 2a3d 7deb 8dbd 2dc5 b03d 020e 27bb
00000060: 1e6b b53d fc3c 883d 940d b03d 4234 923d
00000070: b2c9 0e3c ae07 a23d de46 c2b8 ef96 703d

dense2.weight f4 [1, 32]
-0.103789315 0.1939121 0.22386016 -0.11137528 0.1527417 -0.08209411 0.05759454 0.096966185
0.055877022 -0.09204675 -0.16442175 0.19992453 0.172565 -0.15434428 0.2207628 0.14442898
0.19057904 0.22574368 -0.004286492 0.11237879 -0.0648305 0.18942624 -0.18961658 0.18978168
0.16085307 -0.17581874 -0.17598908 0.30431014 -0.205076 -0.21804823 0.1463194 -0.11431461
00000000: 7e8f d4bd e590 463e 993b 653e b918 e4bd
00000010: 5268 1c3e f520 a8bd 41e8 6b3d 3596 c63d
00000020: 4edf 643d 0283 bcbd 2d5e 28be 04b9 4c3e
00000030: e1b4 303e 6d0c 1ebe a50f 623e 31e5 133e
00000040: 2727 433e 5a29 673e b375 8cbb da26 e63d
00000050: dac5 84bd f4f8 413e d92a 42be 2156 423e
00000060: abb6 243e d409 34be 7b36 34be 8ace 9b3e
00000070: 71ff 51be 0948 5fbe c1d4 153e c71d eabd
