제출_코드/models/model_1224_img/final_d.pt (torch, 221947 bytes, 13 tensors)

conv1.cnn.weight f4 [12, 3, 3, 3]
00000000: d3ac cd3d a77d c0bd deb1 32bd 8dd7 b13d
00000010: edca 31be 7dc6 f93d 8308 00bd e609 b83d
00000020: ba95 8d3c 7c36 0abd 659e 813d cce5 7d3c
00000030: 594a 913d 95bc 96bd 4191 ddbc 5b0f 98bc
00000040: 4465 173d d0ba e0bb 11d9 213e c3f3 8e3d
00000050: 3e7c 86bd 2cb4 ecbd 38d1 fcbc dba9 c4bd
00000060: 3ad5 80bd 6ac4 953c 4b7c de3d 1c07 df3d
00000070: a1f8 43be 3f12 013e ced2 773d a009 393e
00000080: d951 033e 04b6 37be a68f 45be cbc7 cfbd
00000090: a514 223e 7fbd 94bc 8593 903d eda5 d1bd
000000a0: 28a0 353e abc6 9ebd a981 203e fc9d b53a
000000b0: fbcb e0bd 13a8 b43d 1cc0 b4bd 72a3 373d
000000c0: 4a4c 8cbd ee63 05bd bf77 39be 787a a2bd
000000d0: 000b d43d 6fed 61bd 53fd 403e 0bfd 233e
000000e0: 0c43 afbc 228c 05be 10c3 f83d 26b7 623d
000000f0: 0f49 e2bd 7612 ed3d 52c6 d73d 5c2c 2c3e
00000100: c2e7 e4bd 1e7a 9bbc 850b 36bc 35cf e83c
00000110: 14e2 23be 656a 0bbe 7571 e03d 8889 43bd
00000120: 3f50 bb3d f608 e83b d16b 9b3d 9b17 0f3d
00000130: a5f1 8f3d d2ba a63d 3814 36be 976b d03d
00000140: 9b3c 0dbe f906 1bbe 7698 623c 3315 47bd
00000150: 9ff3 fe3d 6b80 ddbd 593b 21be 7eee 153e
00000160: b669 05bd 3395 ca3d 8f5c 843d f3cf 13be
00000170: e38f 4a3d fc56 123d 55b8 f8bd 8860 bdbd
00000180: cfde 823d 8b64 243d 92ff acbd 9951 63bd
00000190: f074 343e 2f4c cbbc fdb5 c83d 76d7 b93d
000001a0: 4b92 00be 895a 29be 71f6 423e 4acd f33b
000001b0: 5468 013e 7aad 243d c712 773d 9360 1f3e
000001c0: 7c1b 413e b8ed 12be 4d8c 963c 121e 083e
000001d0: e766 063e ef23 023e 8938 0fbe bcde febd
000001e0: 67c6 eabd 6171 9a3c 7a8a 373e eacd f5bd
000001f0: 969b d73d 0f5e f0bd df92 31be 19ef 29bd
00000200: 2c05 003e 91bf 383e e0ad ffbd ce29 ef3c
00000210: fb9f 2b3e b860 053e 3f6b df3d 89f4 0f3e
00000220: cd60 fa3d fd4c 803d 5810 0abe fd70 2fbe
00000230: a858 b8bd 1309 cbbc f62a cfbd f896 883d
00000240: 18a1 313d 48b2 20bd b90f 7e3d c374 903d
00000250: 20b3 063e 7364 073e cbbf 85bd a524 313e
00000260: 266c 44bc 3dd4 babc 528f 35be 2810 0bbe
00000270: 102e d5bd b1d1 8bbd 9ec9 0e3e ef11 81bd
00000280: 03aa 22be 47a8 ac3d 8c92 833d c3cc f43d
00000290: adfc adbd 38d3 2d3d a6c4 a4bd c2d4 49bd
000002a0: bf24 22be 7086 93bd eea7 4cbd 78c9 8e3d
000002b0: b068 bc3c 2e1e 143d 6378 423e 6b07 4a3e
000002c0: 231f 0e3e c2e0 be3b a9ba 08be aec3 113e
000002d0: b7a3 78bd 1311 e3bc a96c 35be 7f9b 24bd
000002e0: f64a eabd 94cc 3c3e 4aae 2abe a802 1abe
000002f0: 3304 6fbc e119 ecbd 5d1b 883d 024a 88bd
00000300: 5246 babd 17ae b53c 77da ff3d 55f1 14be
00000310: fac5 bd3d 551f ff3d adc3 493e ea06 07be
00000320: 18a3 503d 2b05 1bbe cd8e 213e 8226 87bd
00000330: 7707 043e 95d9 1e3c 4ac9 e0bc 4c0d 2d3b
00000340: 64a2 113d 24a8 c23d 646d b23c 73b5 553d
00000350: 4266 28be 68e5 1c3e e2e0 2f3e 0126 163e
00000360: 79ec 0b3e cce0 08be 9a8f 7ebd cef3 353e
00000370: cb12 23be a888 363e 0cf3 0abe 2908 10be
00000380: 33ad d53d b553 07be ed87 23bd e988 033e
00000390: cb12 1c3e 0c4d 363e 11c1 13bd aa23 1fbe
000003a0: 9bf2 4a3e 16c3 48bd f0a1 95bd 7739 513d
000003b0: 75a5 15be bf81 013e b5dc ee3d f151 19be
000003c0: 14d5 27be 939d 05bc cb20 953d 9d8f 4cbc
000003d0: 459d b2bd de02 483a 56e6 3abe 5539 0cbe
000003e0: 97a6 0cbe ee83 263e 6626 2f3e de72 79bd
000003f0: a3ed f43b a452 9e3d 4166 e93c d339 bcbd
0.10042729 -0.09398966 -0.04362666 0.08683691 -0.17362566 0.12196062 -0.031258117 0.08986263
0.01728331 -0.033743367 0.063290395 0.015496682 0.07094259 -0.07360188 -0.027046802 -0.01856201
0.03696181 -0.0068582073 0.1580546 0.069800876 -0.06566666 -0.115578026 -0.030861482 -0.0960271
-0.0629067 0.018282134 0.10863551 0.10890028 -0.19137813 0.12604617 0.060503773 0.18070078
0.12824191 -0.17940527 -0.19293079 -0.10145529 0.15828188 -0.018156765 0.07059387 -0.10236726
0.17736876 -0.07752737 0.15674461 0.0013856287 -0.10976406 0.0882112 -0.088257045 0.044833608
-0.068504885 -0.032566004 -0.18112086 -0.07933515 0.103536606 -0.055158075 0.18846636 0.16014497
-0.021394275 -0.13041738 0.1214658 0.055350445 -0.11049091 0.11575787 0.105358735 0.16813797
-0.11177017 -0.018979128 -0.011111145 0.028419117 -0.1600421 -0.13614805 0.1095914 -0.047738582
0.09146165 0.0070811464 0.07588924 0.03493462 0.07028512 0.08141102 -0.1778115 0.10176771
-0.1379265 -0.15139379 0.013830295 -0.0486042 0.12448811 -0.108155094 -0.15745296 0.14641759
-0.032571517 0.09891739 0.06462967 -0.14434795 0.049453627 0.035727486 -0.121445335 -0.092469275
0.063901536 0.040134948 -0.08447184 -0.05549774 0.17622733 -0.0248166 0.098003365 0.09074299
-0.12555806 -0.16538443 0.19039322 0.007440244 0.12637454 0.040204503 0.06032064 0.15564184
0.1885814 -0.14348495 0.018377448 0.13292721 0.13125192 0.1270902 -0.1398641 -0.12444827
-0.114636235 0.018852891 0.17923918 -0.120021656 0.105277225 -0.1173669 -0.17341183 -0.041487787
0.12501973 0.18041827 -0.12484336 0.029194739 0.16760246 0.13025177 0.109091274 0.14058127
0.122254945 0.06264684 -0.13482797 -0.17132945 -0.09001285 -0.0247846 -0.10115616 0.0666942
0.04336652 -0.039232522 0.062026713 0.070535205 0.13154268 0.13221912 -0.06530722 0.17299135
-0.011988675 -0.022806281 -0.17730454 -0.13580382 -0.10409176 -0.06827105 0.13944098 -0.06302249
-0.15885167 0.08430534 0.06424436 0.11953118 -0.0849546 0.042437762 -0.0804532 -0.049275167
-0.1583433 -0.07203376 -0.049964838 0.06972021 0.022999138 0.036161594 0.18991236 0.19729392
0.13879065 0.005825133 -0.13352455 0.14234802 -0.060703006 -0.027718103 -0.17717232 -0.040187355
-0.11440079 0.18437415 -0.16668049 -0.15040076 -0.0145884035 -0.115283735 0.06645844 -0.06654741
-0.09095444 0.02217774 0.12492841 -0.14545186 0.09266277 0.12457148 0.1970355 -0.13186231
0.05093679 -0.1513869 0.1577713 -0.06599142 0.12893473 0.00969543 -0.027439732 0.002640563
0.03555526 0.095047265 0.021780677 0.052174997 -0.16445258 0.15321887 0.1717563 0.14662935
0.13664426 -0.13367003 -0.062148668 0.17768785 -0.15925138 0.17825568 -0.13569278 -0.14065613
0.10433426 -0.13215525 -0.03992455 0.12845196 0.15241544 0.17802829 -0.036072794 -0.15540949
0.19819109 -0.049014173 -0.07306278 0.051080193 -0.14613898 0.1264715 0.1166319 -0.14972664
-0.16389877 -0.008155244 0.072816454 -0.012485412 -0.08721403 0.0007629822 -0.18251929 -0.13693745
-0.13735424 0.16261265 0.17104492 -0.06090056 0.0074746176 0.07730606 0.028491141 -0.091907166

conv1.cnn.bias f4 [12]
00000000: 62b8 a43d d906 87bd 7f41 dcbd 4029 323d
00000010: 895d 0ebe 3f76 26bd d72a c93d 3bdc 913d
00000020: 5fcd 273e abc0 06be cce2 ed3a 2eef 69bd
0.08042981 -0.06593103 -0.1075468 0.04349637 -0.13902868 -0.040640112 0.09822624 0.07122084
0.16386937 -0.13159434 0.0018149256 -0.057112865

conv1.gate.weight f4 [12, 3, 3, 3]
00000000: 3d61 f4bd 5c63 eebd 82f2 313d 0a8f c23c
00000010: eea2 b4bd e201 0fbe f02a 2ebe c183 343e
00000020: 2d91 0bbd d283 0bbd 7288 87bd d164 b2bd
00000030: 09d3 2dbe f6c1 00be ced1 ee3d f3b8 5c3d
00000040: fe4b 80bd e826 8fbd b394 083e 68c1 123e
00000050: ab3b 473e fc88 7f3d 7b47 a43d 4a07 87bc
00000060: 7c73 cebd ebb1 3bbe 59dd f53d 8e3f d1bc
00000070: 7a5d 943d d8be 22bb cb4d 31be 0388 d4bd
00000080: 2c2c 853d c0f0 4abd 99b2 32be 3bb4 993d
00000090: 3ef6 a6bb acd5 6cbd 7435 8a3d 7d71 e13c
000000a0: 71c9 81bd 2ec9 263e 7ff6 cc3d c1e2 c93c
000000b0: a6fe b9bc 65b3 33be 2947 1c3e 036e 75bd
000000c0: 8bc6 0cbe 2223 063e 33f4 6e3d 9d89 513d
000000d0: b455 1abd f29a 3bbd ba2a ef3c 1237 213e
000000e0: 7cce 113d 84a4 acbd 9ffb 393e 2f69 113c
000000f0: fdef 183e 6aa9 2d3d d402 353e 6a23 d13d
00000100: 3216 cbbd dc4b 123e 421d 3a3a 0eee 18be
00000110: 3e60 14bd 495b 37be 5a2b ccbd 316c 10be
00000120: 884d fb3d 95e5 29bd 5d7a d1bc 8ccb bb3d
00000130: 85ec aa3d 6bb7 fbbd 184b 863d 1279 a73d
00000140: d680 21be ddb2 263e 8149 efbd 7707 83bd
00000150: 41c8 25be b69b 373e 5b28 e03c a142 1b3e
00000160: 960c c83c 7e5a e53d dc79 8abd 1ded 22be
00000170: 43e3 093d 7289 6bbc c9a5 10bc f15e bdbd
00000180: f352 fcb9 66fd 713d 87ea 8e3d 7f11 25be
00000190: 3fff b23d 1ed1 b83c 55c6 0a3e ec20 163e
000001a0: b118 19be 2fad 383e bae7 3dbe de4e e33d
000001b0: f059 513c 8736 a83d 93ad b9bd 8de5 013e
000001c0: 0b98 d1bd 8ed0 23be 6212 8e3d 6c30 c63d
000001d0: 038f 4a3e 2c9d adbc 4090 433e 7876 e73d
000001e0: 2de9 dcbd b2d9 11be 0bd3 d43d 246d eabd
000001f0: 4b81 bf3d 5cbd 2fbe 7dab 0e3e e61a 823d
00000200: 601d 06bd 7a54 9b3d 1925 06be e4c9 3cbd
00000210: 1afc e9bb fa06 d9bd cd45 65bd cb1f abbd
00000220: 67e3 423e 107b 2b3e a7c7 1b3e b4b9 2c3e
00000230: 4400 49be 2075 663d fd93 9a3d ce2d 03be
00000240: c848 883d 0efe debd 567a 8b3c c308 963d
00000250: 7a8f 353e 2ed0 c0bd a141 13be fb8e 2e3e
00000260: b373 ba3d 0218 a83d bfbf 843d 7450 a7bd
00000270: e049 003e 8689 20be 349d 093d 42c0 c13d
00000280: ffba fd3d bad0 afbd f032 f1bd 86ee 7d3d
00000290: 760c 14be f004 2cbe 7a6a 2bbe e220 b8bd
000002a0: 4042 30bd 8d92 f7bd e6f9 9fbd c13f 31be
000002b0: 7d9d 033e c9ff 49bd 4b8e 0abe 1418 633d
000002c0: 7ee1 12be 8440 0f3e 53dc cf3d aae8 37be
000002d0: 816f 1dbe c0e8 eebd de20 e0bd cb3e 263c
000002e0: 4b68 3dbe 96a1 11be ae9b be3d 1adc 93bd
000002f0: 8e54 89bd a564 1abe c725 ac3d 7ca3 6c3b
00000300: ad66 9fbd e693 fbbd a3c7 3f3d dafc 313d
00000310: 27b2 b73d fcbb 463d 339a 8fbc f23e 22be
00000320: e373 fe3d 6499 4fbc cf69 05be c11c 2d3e
00000330: 54a1 ca3d d918 12be 5e00 bfbd 8ece 5bbd
00000340: 57ea f6bd 3499 bb3d 97df 17be b5b4 343e
00000350: 1996 9cbd 8587 d73d 80f1 773c 2680 a7bd
00000360: cec0 ee3d c907 11be 2ab5 ddbd e1a0 9d3c
00000370: c487 293e 58cb b5bd 07f6 01be 6815 08be
00000380: 5c17 b9bd fafb 76bd 0e47 1cbd 21a6 c7bd
00000390: 49e8 663d c3df dfba 453c febd bf11 d5bd
000003a0: 78b2 173d f85d 16bc accd 113e 8c57 b8bc
000003b0: 315c 13be f59e 15be dec6 74bd 8505 28bd
000003c0: 66f4 e33c 3e02 40bd ff42 843d 889a 99bd
000003d0: 6ee3 143e 1113 043d 92f4 5bbd 7fdf 363e
000003e0: 641b 6e3d 3cab f2bd 109b e5bd 5f3a f63d
000003f0: 339c a93d 291e 1d3e 9fba 80bc 9bfb 023e
-0.11932609 -0.11640045 0.043444164 0.023749847 -0.08820139 -0.13965562 -0.17008567 0.17628385
-0.034073997 -0.03406126 -0.06617822 -0.087106355 -0.16975035 -0.1257399 0.11661111 0.05388732
-0.06264494 -0.06989843 0.13337974 0.14331591 0.19456355 0.062386498 0.08021446 -0.016482968
-0.10080621 -0.18329589 0.12005109 -0.025543 0.07244392 -0.002483299 -0.17314832 -0.10377505
0.06502566 -0.049546003 -0.17450942 0.07505079 -0.0050952723 -0.05782096 0.067484766 0.027519936
-0.0633725 0.16287681 0.10007953 0.024644258 -0.022704434 -0.17548902 0.1526152 -0.05991937
-0.13747613 0.1309934 0.058338355 0.05115663 -0.03767939 -0.045802064 0.029195178 0.15743664
0.03559731 -0.08429816 0.18162392 0.008875175 0.14935298 0.042397894 0.1767686 0.10211833
-0.09916343 0.1428675 0.00070996967 -0.1493456 -0.036224596 -0.17905916 -0.09969206 -0.14103772
0.12270647 -0.041478712 -0.025571043 0.09169683 0.08345894 -0.122908436 0.06557292 0.08177389
-0.15771803 0.16279168 -0.11683942 -0.06397908 -0.16189672 0.17930493 0.027362993 0.15162136
0.024420064 0.11198901 -0.06761524 -0.15910764 0.033664 -0.014376031 -0.008828589 -0.09246624
-0.00048126988 0.05907955 0.06978326 -0.16119955 0.087400906 0.022560652 0.1355222 0.14660996
-0.14950825 0.18034814 -0.18545428 0.11099027 0.01277779 0.08213525 -0.0906631 0.12685223
-0.10234078 -0.15997526 0.069371 0.096772045 0.19781117 -0.02119311 0.19097996 0.11301893
-0.10786662 -0.142432 0.10391816 -0.11446598 0.093508326 -0.17162079 0.13932605 0.06352787
-0.032742858 0.07584472 -0.13100089 -0.046090975 -0.0071406486 -0.10597034 -0.05597477 -0.083556734
0.1903206 0.16746163 0.1521288 0.16867715 -0.19629008 0.056264043 0.07547758 -0.12810442
0.06654507 -0.10888301 0.017026108 0.0732589 0.17730513 -0.09414707 -0.14380504 0.1704673
0.09104099 0.08207704 0.06481885 -0.08169642 0.12528181 -0.15677461 0.033597186 0.094604984
0.12389182 -0.08584733 -0.11777294 0.06199505 -0.14457878 -0.16798759 -0.16739836 -0.08990647
-0.04303193 -0.12088499 -0.07811336 -0.17309476 0.12853046 -0.0493162 -0.13530843 0.055442885
-0.14343831 0.13989455 0.101494454 -0.17959848 -0.15374567 -0.11665487 -0.10943769 0.010146807
-0.18496816 -0.14221796 0.09307037 -0.072197154 -0.06705581 -0.15077455 0.08405643 0.0036108186
-0.07783256 -0.12284069 0.046821248 0.04345403 0.08969527 0.04851912 -0.017529583 -0.15844324
0.124244474 -0.0126708485 -0.13028644 0.169055 0.09894052 -0.14267291 -0.09326242 -0.053663783
-0.120564155 0.091600806 -0.14831387 0.1764706 -0.07645816 0.10523895 0.015133262 -0.08178739
0.11657868 -0.14163126 -0.1082557 0.019241752 0.16555697 -0.08876675 -0.12691508 -0.13289416
-0.090376586 -0.060298897 -0.0381537 -0.097484834 0.05637387 -0.0017080236 -0.12413839 -0.104037754
0.037035435 -0.009177677 0.14238614 -0.022502683 -0.14390637 -0.14611419 -0.059759967 -0.04102089
0.0278265 -0.04687714 0.06458091 -0.075001776 0.14539883 0.032244746 -0.053700037 0.17858694
0.05813159 -0.118490666 -0.112112164 0.12022852 0.08281746 0.15343536 -0.015713988 0.12791292

conv1.gate.bias f4 [12]
00000000: 456b 43be 0f6e 2f3e 347a 2cbd 3e39 35be
00000010: 5353 083e dc53 56bd 6ac9 323e dbd6 05be
00000020: 8a09 37be 0c9c 14be 0ab0 aa3d d966 b0bc
-0.19083889 0.17131828 -0.04210873 -0.17697617 0.13313036 -0.05232607 0.17459646 -0.13070242
-0.17874733 -0.14512652 0.08334358 -0.021533417

conv2.cnn.weight f4 [48, 12, 3, 3]
00000000: d178 a2bd bc06 963b 8020 b43b 5b18 aa3c
00000010: c1fe 17bd a8ee 80bd 6557 743d e703 32bd
00000020: 7388 5b3d 75dc bb3d d50e 94bd 959e 64bd
00000030: 8971 993a 897d a6bd 6866 f23c 6dd3 52bd
00000040: 9b83 20bd c70f acbd c037 243d df8f 5abd
00000050: 65e1 b3bd 68ad 08bd 8c47 21bd a25b d1bd
00000060: 939c e13c bf22 e4bc 40dc 7a3d 99df 593d
00000070: c982 40bd d1f9 8fbd e7e1 43bd f1bb 853d
00000080: f475 71bc bfd9 1abd 6270 873d 5c89 a53d
00000090: ada6 923d 6b26 7dbd 3bc4 e8bc 685c c3bc
000000a0: d8fd 903d 8332 2abd 1dcf 41bd 58a6 14ba
000000b0: 09fc 31bc b154 123d 2765 a43c e6b3 3bbd
000000c0: 82d5 903d 9159 483d b4df 0c3c 9467 c1bd
000000d0: 6b8b 5c3d ba61 9e3d 39e8 043d ba8a 35bd
000000e0: 0a8d 9f3c 97e4 d8bc 3380 ad3d f409 ba3d
000000f0: 2618 5ebc cd36 8abd ba68 913d 3d2d 4a3d
00000100: c6d5 633d 8187 abbd cfed b53c ed3e e2bc
00000110: 869d c3bd 6fc2 78bd 72b9 e33c 5ec2 403d
00000120: 453c a8bd 9f5f 3b3d effc af3d 293c 7a3d
00000130: 7c4e 8d3d c64b d1bc bf40 5d3d def1 9b3d
00000140: 4b04 153d 341e a4bd d845 b9bc c650 803d
00000150: c0ef 943d 9e2d 6b3d 2f10 fdbc 433b 97bc
00000160: 81d0 9bbd 6601 31bd e35c aa3d b2ae a8bd
00000170: 45c0 14bc d53e 093d a646 83bd 2db8 7f3c
00000180: e5df 2fbc f439 123d cf54 84bd fef8 9d3b
00000190: c8f8 bcbd 2c5b 8c3d d304 d63d 285c fcbc
000001a0: 5840 823c e55b 55bd 85d1 90bd 9618 3fbd
000001b0: 4d3a 32bd 42bd a73c 4919 91bc da96 3dbb
000001c0: ce1e 8bbd 5427 82bd cd48 94bd c27e 8ebd
000001d0: a811 913d e1cc e23c 7b88 b6bd 6906 a5bc
000001e0: 0c1f 463c ce59 463d ca74 af3d 8f7d 5c3c
000001f0: ec56 593d 5c4b 9bbc baeb a73b 6c0c 63bd
00000200: 661f 9f3c ab6e a03d 8c1d 6a3d 58ad e03d
00000210: 4831 f6bc 794e bbbc fb57 d73c 1dbd 8a3d
00000220: dd2d b6bd 1856 25bd 8783 913c e950 8cbd
00000230: 2665 463d b19e 243c 8432 27bd ef94 6e3d
00000240: 122c 953d 4bda b23d 5f42 073d 1494 163b
00000250: df82 993d 1958 ba3d ae4e 4cbd d2b1 233d
00000260: 75b6 b3ba 6bd6 eabc 5eaf acbc 6423 14bd
00000270: e09d 92bd edb7 cfbc 38b2 223d c422 a23d
00000280: dd4b 723c 3d3d d5bd c9a0 813d cb02 16bd
00000290: 0b36 ae3d a6b7 d4bd 0ec1 3bbc 4139 903d
000002a0: fa1c 513d 9356 34bd bf84 c4bd 1ff6 56bb
000002b0: 4b9a 0f3d 2254 94bd 1d25 a4bd 25c9 253c
000002c0: d3a2 b8bc 00af 653d 4cb8 d3bd 7581 06bc
000002d0: 41fc b2bd f702 cdb8 e043 6bbd 8a7c 8c3c
000002e0: 33a7 9abd 02aa a3bd a80c 1fbd eab6 bebd
000002f0: f9e4 893d 938a 64bb 1d80 36bd 50f1 713d
00000300: ed95 f7bc 0e7c 123d 4ed1 87bc 4d69 92bd
00000310: 24ea 0f3d 8612 493d 9c02 aabd 7f3d 793c
00000320: 3e37 3c3c dc26 48bb db40 033c f854 1fbd
00000330: c4f2 81bd 7e51 eb3b 2c9f 8ebd 98ef a8bd
00000340: 91c0 9ebc 6100 84bd e056 b33c 14fc 813d
00000350: becb 883d f076 3dbd 9fd7 7d3d 3be2 8c3d
00000360: dcb9 e3bb 2f45 283d 64bf 403d 3d78 883d
00000370: 1351 6f3d 63a1 1d3d 9df1 2dbd ab40 25bd
00000380: 455d 5abd 4c5e 953d ad9f 52bc 5057 debb
00000390: e0a2 b5bd 4d09 293c fdea 9bbc a346 85bd
000003a0: af72 7a3d 69d4 b6bd 4fbc 89bc 65fc 003c
000003b0: 2fce b8bd 9fda 6f3d 32a0 04bd 1b23 503d
000003c0: 49b4 613d 0d05 ab3d a8bf 183d 1bd7 743d
000003d0: 8dd2 c33d 1919 053c c80e 92bc 4801 d5bc
000003e0: f657 ed3b dbc9 303d 6c53 acbd 3d4a aa3d
000003f0: 663b d83c e24c b7bd 0fda 283d 219b 5d3d
-0.079332 0.0045784395 0.0054970384 0.020763567 -0.037108187 -0.0629552 0.05965366 -0.043460753
0.053596925 0.09172908 -0.072293915 -0.055815298 0.001170681 -0.08129413 0.029589847 -0.051471163
-0.03918801 -0.08401447 0.04009223 -0.053359862 -0.08783225 -0.033368498 -0.039374873 -0.10222556
0.02754048 -0.0278486 0.061245203 0.053191755 -0.046999726 -0.070300706 -0.04782286 0.065299876
-0.014737595 -0.037805315 0.06613232 0.0808284 0.07160697 -0.061804216 -0.028413882 -0.023847774
0.07079667 -0.041552078 -0.04731666 -0.0005670539 -0.0108633125 0.0357253 0.020067764 -0.04582586
0.070719734 0.048913542 0.008598257 -0.09443584 0.053843897 0.077334836 0.032448027 -0.044321753
0.019476432 -0.026476188 0.08471718 0.0908393 -0.013555562 -0.06748734 0.07100053 0.04935955
0.055623792 -0.08375455 0.022208123 -0.027617896 -0.095515296 -0.0607323 0.027798388 0.047060363
-0.082146205 0.04574549 0.08593165 0.06109253 0.06899735 -0.025548827 0.054016825 0.07614492
0.036381047 -0.08013573 -0.022616312 0.06265406 0.07272291 0.05741655 -0.030891506 -0.018460875
-0.07608128 -0.043214224 0.08318498 -0.082364455 -0.009079044 0.033507187 -0.064099595 0.015607876
-0.010734533 0.0356998 -0.064614885 0.004820942 -0.09227139 0.06853327 0.10450139 -0.030805662
0.015899822 -0.05208959 -0.07071213 -0.046654306 -0.04351263 0.020475987 -0.017712252 -0.0028929026
-0.06792985 -0.063551575 -0.07240448 -0.06957771 0.07083446 0.027685585 -0.0891275 -0.020144658
0.012092363 0.04842549 0.085671976 0.01345767 0.05306141 -0.018956833 0.0051245363 -0.05543177
0.019424152 0.07833608 0.057157084 0.10970563 -0.030052796 -0.022864567 0.02628707 0.06774352
-0.088954665 -0.04036531 0.017762912 -0.0685137 0.048436306 0.010047601 -0.04081966 0.058247503
0.07283796 0.08733042 0.03302228 0.0022976445 0.07495665 0.090988345 -0.049879722 0.039964505
-0.0013710993 -0.028666696 -0.021079715 -0.036166564 -0.071590185 -0.025356257 0.039720744 0.07916787
0.014788595 -0.10412071 0.063294955 -0.036623757 0.08506402 -0.10386591 -0.011459602 0.0704217
0.051053025 -0.044027876 -0.09595632 -0.0032800508 0.035059255 -0.072426096 -0.08014891 0.010118757
-0.022538578 0.056075096 -0.10337886 -0.008209576 -0.0873952 -9.775714e-05 -0.057437778 0.017149229
-0.07551422 -0.07991411 -0.03883043 -0.09312232 0.06733126 -0.0034872636 -0.044555772 0.059068024
-0.030222857 0.03576284 -0.016579296 -0.07148991 0.035135403 0.04908993 -0.08301279 0.015212416
0.01148778 -0.003054074 0.008011068 -0.038899392 -0.06345132 0.0071813455 -0.069639534 -0.08248824
-0.019378932 -0.06445385 0.021892011 0.06346908 0.06679486 -0.046256006 0.06197321 0.068790875
-0.0069496464 0.041081604 0.047057524 0.06663559 0.058426928 0.03848399 -0.04246675 -0.040344875
-0.053311605 0.07293376 -0.0128554525 -0.006785311 -0.088689566 0.010317159 -0.01903295 -0.065076135
0.061144527 -0.08927233 -0.016813425 0.007872676 -0.090237014 0.058558103 -0.032379337 0.05081473
0.055103574 0.08350573 0.037292153 0.059775453 0.09561644 0.0081236595 -0.017829314 -0.026001588
0.007243152 0.043161254 -0.08414349 0.08314941 0.02639551 -0.08950211 0.041223582 0.05410302

conv2.cnn.bias f4 [48]
00000000: 5ed5 8a3c 3053 8d3d 42a3 7fbb ef33 f9bc
00000010: 780c 843d 1483 173a efeb 6bbd eac2 24bd
00000020: 934c ee3c 284f 12bc 5103 8dbc a6bf 0c3d
00000030: 4953 b9bd 4fdf 0fbd b48f bdbd b108 893b
00000040: 94d4 ea3c 1906 873c 1a06 283c 0b85 d33c
00000050: 450c 883c 03ac b43c aac1 0dbd 376a a93d
00000060: 1d76 01bd 5f94 3e3d 8e08 bc3d f6c0 4e3c
00000070: 16ac 58bd 0bb8 bbbc 7dd2 afbd 0dd1 88bd
00000080: 5bd8 203c 7304 a73d bae8 87bc 4309 9cbb
00000090: efe2 003c d566 51bd 2672 3ebd 097c 94bd
000000a0: f3d8 9bbb 3730 da3c 3930 8b3d 612f c2bd
000000b0: 2eae 473d 3b42 a3bd 9513 403d 330d 89bd
0.016947445 0.069006324 -0.0039007221 -0.030420272 0.06447691 0.0005779725 -0.05759805 -0.040224947
0.029089248 -0.008930005 -0.017213495 0.034362458 -0.090490885 -0.035125073 -0.09255925 0.0041819443
0.028665818 0.0164824 0.010255361 0.025820276 0.016607413 0.022054678 -0.03460852 0.08272212
-0.031606782 0.046528216 0.09181319 0.012619248 -0.05289849 -0.022914907 -0.08585069 -0.06680498
0.009817208 0.081551455 -0.016590465 -0.0047618463 0.007866605 -0.05112346 -0.04649558 -0.0725022
-0.004756087 0.026634319 0.06796307 -0.09481693 0.048750095 -0.07971617 0.046893675 -0.06691971

conv2.gate.weight f4 [48, 12, 3, 3]
00000000: f46b 79bd 9845 99bd 2ab3 a13d ee72 90bd
00000010: c00d 723d 5440 a73d 6956 6fbd 379b 713d
00000020: 3fde b53d 00a9 b8bd 7a83 90bd b25a 963d
00000030: bee9 74bd f32d 593d b3b6 70bd c942 0abc
00000040: 357b 78bd 3e12 ce3c 4801 4bbd 3d13 7fbd
00000050: 05c9 d33c e9d0 16bc 0885 51bc 9c0b 35bd
00000060: 80ac 7a3d f500 b03d 3f8a 543d d9f7 86bd
00000070: c432 b5bd 5d88 66bd eeb0 073c 27e7 dcba
00000080: 4b8b c63c 22a1 093d 2ccf 453d 77e3 443d
00000090: c4a3 d23c 69d1 20bd 65be 62bc e5ed d9bc
000000a0: 18c8 82bd 43e0 dbbb 9118 bbbd 3b21 8e3d
000000b0: 7a81 753d efe6 5d3c e4d5 82bd a473 1ebd
000000c0: fd6a a43c 9b6e 9e3d faca a63d 8519 f73c
000000d0: 8889 343d 75a7 01bd 664d 91bd 75f7 37bd
000000e0: 8868 1cbd d788 053c b909 f3bb 6ef0 763d
000000f0: 10b2 b63d b75d 7cbd f6cd 0f3d beb0 1bbd
00000100: 5891 543d 97fd a7bd f814 99bc 0f7b 5e3d
00000110: 5fe5 9bbc 430c 63bd ca5e 9d3d 02d8 8dbd
00000120: bdd2 89bd 32f9 86bb 1090 1e3d 55c4 66bd
00000130: cdcf 833d 7445 cdbd 854b a63d 9473 93bd
00000140: f5f9 853c 4863 68bd 16f0 a7bd 6161 d63d
00000150: 35ae 1a3d 5de2 95bd a4a4 aebd a01e c4bb
00000160: 9c4d 853d e82d 2c3d 518f 913b e154 633c
00000170: de0e a4bd ee2b 4b3d 077b 48bc 1fa5 abbd
00000180: eaa5 9fbd 9e99 7abc 04b2 68bd 7223 e1bc
00000190: c935 c43d 0966 70bb f96a 7cbd 3bdd 9b3d
000001a0: 4037 b13d 7ab2 483c 1d3e 843b 3360 9d3c
000001b0: 3451 94bb 67c1 8d39 b9f2 3d3d 895e 6f3d
000001c0: 2a9b 5d3d 0e47 fe3c 1955 ffb9 f178 b53d
000001d0: 600a c03c 19e8 343d 5d2f 863d 7354 9a3c
000001e0: 5a12 24bd ed26 1a3d c30b 4fbd c754 3b3d
000001f0: f35e 8fbc 6333 683c fa7b 133d 0679 9fbd
00000200: 8c18 c7bd c482 573d eaf3 9ebd fee8 3dbd
00000210: 88c2 3d3d 51c0 0d3d 8e33 a13d 14a3 dcbd
00000220: 43f3 3f3d aed6 47bd 0b5e bd3c ed90 ae3d
00000230: 30a0 403d d282 d9bd 75bd b3bc 780d 683d
00000240: b0fd b63c 69fd 7cbd fe27 2c3d 791e 4f3d
00000250: 51a6 63bd 31c0 cebc 941f 86bd 551e 74bd
00000260: ca4b 02bd 262b 00bd cd15 76bb 1f4e 833d
00000270: afaf 9b3d 9860 5a3c 1052 453d 6ff4 553d
00000280: 4fd4 c33c 3ced 0cbd 9de6 013d 151b fe3a
00000290: 55d4 84bd b9cb 81bc 2570 04bd 33d1 1c3d
000002a0: 4f87 5fbd 7eda d93c 91cf b63b 1eb3 b0bb
000002b0: 6ab9 cc3c 71b9 553d ed94 893c 0f54 e43c
000002c0: 95a2 b2bc 4247 19bc aee8 2a3d 8484 f9bb
000002d0: c9d3 b83d 2fb0 3b3d 258a 9fbd d76c de3b
000002e0: 77e5 e2bb 6f40 243d 8bed 813d 1bdf 523a
000002f0: 9039 80bd 9095 d8bc 9cbb cebc c226 123d
00000300: c68f 1d3d 4129 a73b 6ae3 9cbd 63a1 f83a
00000310: 6819 c23d 5823 8a3b 06bc 3c3d ba3f b6bd
00000320: 62fe 213d efb2 a23d 99c4 2c3c a66d 99bc
00000330: e313 1c3d 81d5 cebd 2f99 7b3c a2f0 8abc
00000340: 17f9 aa3d f9de a8bb 2c32 b13d aac5 e1bc
00000350: 3625 06bd ee3d 5f3d d7b6 473c b835 d0bd
00000360: 3df8 48bd a92d b9bc 6af0 353d 3698 223d
00000370: 6ab6 35bd bf99 a3bd 4625 c13d 83b4 febc
00000380: 98e8 5b3d 6efb 9dbd 24c0 caba f397 a13c
00000390: 5030 a43d fe5f 4bbd 851c 90bd cfa1 fdbc
000003a0: 604d 563d 382b 61bd 91f4 d7bd 51ee d8bc
000003b0: b5b6 9f3d c414 aabd 5440 ba3c 5d89 bd3d
000003c0: 2c98 553d bb84 a23d b32d 9abc d1a9 5d3d
000003d0: 564d 95bd b95d 223d 5bb7 503d 037c 403d
000003e0: 187f 6b3d b25d 8f3d 18f0 9a3d 6eb8 8ebd
000003f0: 842e e53c f4a5 a4bd f612 363d 8f43 11bd
-0.060893968 -0.07483977 0.07895501 -0.07053171 0.059095144 0.081665665 -0.058432017 0.058985915
0.08880281 -0.09016609 -0.07056327 0.073415175 -0.059793226 0.053022336 -0.058767986 -0.008438774
-0.060664374 0.025155183 -0.04956177 -0.062274206 0.02585269 -0.0092050815 -0.012788065 -0.044200525
0.061199665 0.085939325 0.051889654 -0.06590242 -0.088475734 -0.05628239 0.008281929 -0.0016853557
0.024236342 0.033600934 0.048293278 0.04806849 0.025712855 -0.03926221 -0.013839339 -0.026602695
-0.06385821 -0.0067100837 -0.09135545 0.06939932 0.05993793 0.013543828 -0.06388453 -0.038684502
0.020070547 0.0773594 0.081441835 0.030163536 0.044076473 -0.03165384 -0.07094841 -0.044913728
-0.038185626 0.008150301 -0.0074169305 0.060287885 0.089206815 -0.06161281 0.03510853 -0.03801035
0.051896423 -0.08202665 -0.018686756 0.054316577 -0.019030271 -0.055431616 0.07684095 -0.06925966
-0.06729648 -0.004119062 0.038711607 -0.05633958 0.06436119 -0.10023013 0.08119873 -0.07199779
0.01635454 -0.056735307 -0.0820009 0.10467792 0.037763793 -0.07318566 -0.085274965 -0.005985096
0.065089434 0.042035967 0.0044421335 0.013875217 -0.08010648 0.04960244 -0.012236363 -0.08381104
-0.077953175 -0.015295414 -0.056810394 -0.027482722 0.09580571 -0.0036681911 -0.061625455 0.07610556
0.08653116 0.012249583 0.004035725 0.01921091 -0.0045262817 0.00027037712 0.046374056 0.058439765
0.054103054 0.03103974 -0.00048700793 0.08860958 0.023442447 0.044166658 0.065520026 0.018839097
-0.040056564 0.03763478 -0.050548326 0.045735147 -0.01750133 0.014172408 0.036006905 -0.07786755
-0.09721479 0.052614942 -0.07761367 -0.046364777 0.046328098 0.034607235 0.078711614 -0.10773292
0.04686285 -0.04878872 0.023116132 0.08523736 0.047027767 -0.10620655 -0.021940926 0.05665347
0.022337765 -0.06176511 0.042030327 0.05056617 -0.055578534 -0.025238128 -0.06548992 -0.05959924
-0.03181056 -0.03129115 -0.0037549615 0.06411385 0.07601868 0.013328694 0.048173964 0.052235063
0.023904948 -0.03440593 0.03171407 0.0019386733 -0.064858116 -0.015844213 -0.03233351 0.038285445
-0.0545724 0.026593443 0.005578943 -0.005392446 0.024990756 0.052178804 0.016794646 0.027872114
-0.02180604 -0.009355368 0.041725807 -0.007614674 0.0902477 0.04582232 -0.07790021 0.006787877
-0.006924327 0.04010051 0.06344136 0.00080441096 -0.06260979 -0.026438504 -0.025235943 0.035681494
0.03846719 0.0051013534 -0.07660563 0.0018968995 0.09477502 0.004215639 0.04607775 -0.088988736
0.03954924 0.07944285 0.010544919 -0.018729042 0.038104903 -0.100993164 0.015356346 -0.016960446
0.08348291 -0.0051535335 0.08652148 -0.027560074 -0.03275033 0.05450242 0.0121895885 -0.10166496
-0.049064863 -0.02260478 0.04441873 0.03969594 -0.044363417 -0.07988309 0.094309375 -0.031091934
0.053688616 -0.07713972 -0.0015468639 0.019725775 0.080170274 -0.049652092 -0.0703669 -0.030960945
0.052319884 -0.054972857 -0.10544694 -0.026480826 0.077985205 -0.08304742 0.022735752 0.092547156
0.052147076 0.079354726 -0.01882062 0.054117028 -0.07290141 0.039640162 0.05095611 0.046993267
0.057494253 0.07000293 0.075653255 -0.06968771 0.027976282 -0.080394655 0.044451676 -0.03546482

conv2.gate.bias f4 [48]
00000000: 9c2b 563d ab57 2cbc a58a 71bd 2097 c0bd
00000010: cb69 cebb 1d01 0ebd f51f 66bd 4457 733d
00000020: 8b83 b63c b43f c5bc ef44 033d 6800 783c
00000030: d925 fdbb a797 6bbc adfc 743d 36df 9fbd
00000040: 1e72 263d c34f 9cbd d30f 9abd 9f98 f3bc
00000050: 3f45 f8bc c762 84bd dc94 84bd 3a76 1c3d
00000060: a6eb ca3c 07c9 623d ce93 51bd e666 aebd
00000070: 2199 3dbc 55ee f43c e1f0 cabb df6b 56bd
00000080: 27e9 26bd d9d5 133d a4da bebc 347b a53d
00000090: ab29 87bc 5e17 b0bd 9363 89bd bf88 563d
000000a0: 5343 ad3d d96c 48bd aa1a 053d 8ceb d0bc
000000b0: 7eab afbc c2a5 093d b346 65bd 4663 3dbd
0.052287683 -0.010518949 -0.058970112 -0.09403825 -0.0062992326 -0.03466903 -0.05618282 0.059409395
0.022279521 -0.024078228 0.032048162 0.015136816 -0.007725459 -0.014379418 0.059811283 -0.07806246
0.040636174 -0.07632401 -0.075225495 -0.029735861 -0.030306457 -0.06464153 -0.06473705 0.038198687
0.024770569 0.055367496 -0.05116635 -0.0851572 -0.011572153 0.029898802 -0.006193266 -0.052348968
-0.040749695 0.036092613 -0.023297615 0.0808014 -0.016499361 -0.08598207 -0.067084454 0.052376505
0.08460107 -0.04893193 0.032496132 -0.025502943 -0.021444079 0.033605345 -0.055975627 -0.046237253

conv3.weight f4 [192, 48, 2, 2]
00000000: a5e1 5ebc dceb 3cbd f4ac 10bd 3cb3 6bbd
00000010: 2b51 4a3d e719 24bd cc9d 543d 070b 953d
00000020: ce92 99bd 2b4c fbbc 7d0b 923c 2bdd 5a3c
00000030: 6dd6 a73d b05a 41bd df13 90bd a914 a5bc
00000040: 71db 65bd 2d19 7dbc 89db 32bd 3ae2 833d
00000050: 471c e7bb 0f0a 653d 5d7f 3ebd f8bd 1ebd
00000060: 845b 5d3c 6336 34bd 4a41 9b3d 5a6b a5bd
00000070: 6b25 82bd a285 ffbb b3f8 8e3d 182d f4bb
00000080: ea56 873c f8ab a93c 6141 e63c 401b 273d
00000090: 1bdc 4d3d 4c05 13bc 36a3 80bd 367e 9d3d
000000a0: 578a f9bc b787 553c cd0e 26bd bba6 8bbc
000000b0: 0eb5 94bd b1f6 393c 723b d93c 33ff 36bd
000000c0: bc29 24bd 0317 4b3c 94b3 7ebc 237d 98bd
000000d0: dfc3 3bbc 89dd 6a3d 52db 8d3d 14a9 b53b
000000e0: 14d4 773d caa3 34bb afa4 8bbd 51a1 f6b9
000000f0: 6b19 573d bc2c 40bc e7a4 86bd a4be 1bbd
00000100: 4230 5b3d 3ac5 7a3d a8f2 1dbd b50f 063c
00000110: fe58 77bd b5da 08bc 7c7e 7d3d e7c5 3fbd
00000120: 83ea 983c 588a 5dbd 08da 963d ee59 07bb
00000130: 39bb 5b3b ec21 b0bd 1a0c a03d 1e6e 893d
00000140: 9bfc 56bd 06af 23bd 2132 78bd 49de 6bbd
00000150: e961 6dbd 2289 db3c e129 693d fb10 b13b
00000160: 0f78 063d cfcd 113d 707f 1d3d f7d0 53bd
00000170: f7c1 453c ded9 263d f9f5 043d d2cb a63d
00000180: 2ce8 d6bc d3d0 9bbd 2988 86bb 6d0c 453d
00000190: 0ff9 cc3b 0b11 a23d b2ce 81bd e086 5abd
000001a0: 9183 1fbd fd2c 853d c121 8cbb 4e20 3dbc
000001b0: 38a0 bcbc 4a38 b5bc a117 bd3c f9a4 7bbc
000001c0: b413 563d 883d 3b3d a632 77bd 929e 2cbd
000001d0: 55c7 113d 153c 92bd ddef 853d 4328 2e3d
000001e0: f9df 58bd 5264 4d3d 4e0a e83b e512 54bd
000001f0: 9717 623d ec68 72bd 9dea 1b3d ee33 c03c
00000200: 9568 4dbd 89a0 ab3c ff20 1dbd f86d 66bd
00000210: 22db 063d f055 26bb 7a2c 78bd f26b ffbc
00000220: 2635 5abd 87b9 473d 6eb4 89bd 87fe 7c3d
00000230: 1d98 66bd 0b77 3f3d 2ae5 a6bc 18c9 39bd
00000240: 1da0 823d bf87 6abd e832 a63d 83d3 d9bc
00000250: af13 42bd 9a83 77bd 863c febc 7f0b 8a3d
00000260: 86be 4fbd 1fda c93c d7df 9f3c b034 a5bd
00000270: 4c8a 3f3d 5ead 39bd d93d 2c3d dd9f 8e3d
00000280: 1e68 46bd 787a 423d 30fe 1bbc 8583 f1b8
00000290: 9532 103d c25d c33c 8c5a 913d 5011 d33c
000002a0: 3c41 033c 2d67 4fbd 3c4a 7c3d 5478 94ba
000002b0: ad3f fdbc b655 d63b 59be 6c3d c9d5 ac3d
000002c0: f56c 90bd cd83 4a3c 2138 a4bc 1395 39bd
000002d0: e2f9 70bc 07da 9abb 43b6 9cbb f104 0d3c
000002e0: 1883 4fbd 63e1 063d 15e2 603c f81c d6bc
000002f0: 8fe6 4b3d 96d3 b23d 0b0b 2a3d 0d2d febc
00000300: de5f 3dbb 51b8 233c 5c49 0d3d 182d 9fbd
00000310: 8a68 3b3d f05b c9bc 1a3f a6bd 45aa 21bc
00000320: ca4e 12bd 34c4 6d3d 6091 263d 76c3 0abc
00000330: 31d1 f93c 8b6f 58bc 7f5a 49bd 0268 5c3d
00000340: 41a9 623d 3ad8 313d 87ef 0d3d 7ebc 5cbd
00000350: 176d ea3a 8194 ef3c 9491 80bd f237 973c
00000360: 6ad9 78bd 37f0 913d 0288 f63c 94d5 2f3d
00000370: 04a6 9abc 559e fdbc e53f 323c d959 84bd
00000380: 5b43 a2bd 64d1 803b 5545 d0bb c95c 8e3c
00000390: 1fb9 5a3d 262a 2cbd 0999 73bd 8891 c83c
000003a0: 8fd8 713b 3e3f 41ba 58d2 94bd 5f1e 3fbd
000003b0: dd72 7cbd 3f8d ec3c 0b9c 9d3a c2ed a53d
000003c0: 27a7 6cba 9275 bcbc e4a1 dfbc cc8b 673d
000003d0: fa5a aabd f090 df3c 09bd 5abc b233 a43d
000003e0: 737e 3e3d 32d1 363d 24e8 a7bb c805 4ebd
000003f0: ba82 1fbd 8003 533d bd9d 4bbd 087b 85bd
-0.013603603 -0.04612337 -0.03532119 -0.057543978 0.049393814 -0.040063765 0.0519083 0.07277494
-0.07498704 -0.030675968 0.017827744 0.013358395 0.08195195 -0.047205627 -0.0703504 -0.020151453
-0.05611748 -0.015447897 -0.043666396 0.06439634 -0.0070529315 0.055917796 -0.04650818 -0.038755387
0.013510589 -0.04399718 0.07580812 -0.08077116 -0.06354793 -0.0077979127 0.06981029 -0.0074516647
0.016520936 0.020711884 0.028107347 0.040797472 0.050258737 -0.008973431 -0.0628113 0.076900885
-0.030461473 0.013032845 -0.04054146 -0.017047277 -0.07261096 0.01135032 0.026517604 -0.04467697
-0.040078864 0.012395623 -0.015545744 -0.07445743 -0.0114602735 0.05734018 0.06926598 0.0055438373
0.060504988 -0.0027563446 -0.0681852 -0.00047040966 0.052514475 -0.0117294155 -0.065744214 -0.038023606
0.05351282 0.061223246 -0.038561493 0.008182456 -0.060387604 -0.008352925 0.061888203 -0.046819594
0.018666511 -0.054087013 0.07365805 -0.0020652968 0.0033528341 -0.0860022 0.07814808 0.06710456
-0.052486997 -0.039961837 -0.06059468 -0.057585035 -0.057954703 0.026798788 0.056924704 0.0054036356
0.03282934 0.035596665 0.038451612 -0.051712956 0.012070171 0.040735118 0.03246114 0.081443444
-0.026233755 -0.076081894 -0.004105587 0.048107553 0.006255276 0.07913407 -0.06338252 -0.053351283
-0.03894383 0.065027215 -0.0042764847 -0.011543347 -0.023025617 -0.022121567 0.023082556 -0.015359157
0.052264884 0.045712978 -0.060351036 -0.042143412 0.03559049 -0.07140366 0.06539891 0.042518865
-0.052947972 0.0501445 0.0070813065 -0.05177583 0.05519828 -0.059182093 0.03806554 0.023462262
-0.050148565 0.020950573 -0.038361546 -0.056257218 0.032923825 -0.0025380813 -0.06058929 -0.031179402
-0.053273343 0.048760917 -0.06723867 0.061766174 -0.05629741 0.046744388 -0.020372946 -0.045357794
0.063781954 -0.057258364 0.08115178 -0.026590114 -0.047382053 -0.06042824 -0.03103472 0.06740474
-0.050718807 0.024640141 0.019515915 -0.0806669 0.04676275 -0.04533135 0.04205117 0.06964085
-0.048439138 0.047480077 -0.009521052 -0.00011516273 0.03520449 0.023848418 0.070973486 0.025765091
0.008011159 -0.050635505 0.061594233 -0.0011327364 -0.030914152 0.0065409793 0.057798717 0.08439214
-0.07052032 0.012360525 -0.020046296 -0.045308184 -0.014708014 -0.004725698 -0.0047824695 0.008607135
-0.05066213 0.03292979 0.013725777 -0.02613686 0.049780425 0.08731763 0.041514438 -0.031027341
-0.0028896253 0.009992675 0.03449379 -0.07772273 0.045753993 -0.024579972 -0.081175044 -0.009867256
-0.03571967 0.058048442 0.040665984 -0.008469453 0.030495258 -0.013210188 -0.04915857 0.053810127
0.055337194 0.0434191 0.03465226 -0.053890698 0.0017885295 0.029245617 -0.06277767 0.018459294
-0.060754217 0.071258955 0.03009415 0.042928293 -0.01887799 -0.030959288 0.010879491 -0.064624496
-0.07923003 0.0039312113 -0.0063559213 0.017378228 0.0533992 -0.042032383 -0.059472118 0.024483457
0.003690276 -0.00073717895 -0.072666824 -0.046659824 -0.06163298 0.028875945 0.0012024654 0.08101989
-0.0009027593 -0.02300528 -0.027298875 0.056529805 -0.08318134 0.027290791 -0.013350734 0.080176726
0.04650731 0.044633098 -0.005124109 -0.050298482 -0.03894303 0.05151701 -0.049710978 -0.06517607

conv3.bias f4 [192]
00000000: 7e53 0bbc 847f 27bc 0c95 c3bc 03c3 283c
00000010: 1068 e7bc 61e6 1a3d 6f3c a73b f53a 60bd
00000020: 5d26 e4bc 21e3 d23c 9535 323d 121e 55bd
00000030: 0d68 97bc 7515 763d 6e6d 323c 587f 5bbb
00000040: fea0 903c 7d06 bc3c 8f1f 9fbd 1587 4b3d
00000050: 96b0 a43c 4d3a 593d 358b 833d 6650 763b
00000060: eb92 74bd 208d 90bb e3c4 8cbd 89df 993d
00000070: cd50 363d 1658 15bc 2324 943d 5b5d 753d
00000080: 8c80 4f3d da5f 313c 7446 803d 5098 883d
00000090: 27f3 c4bc d804 703d 34ce 9c3d 8871 f93a
000000a0: b349 883d e316 fc3c 636f 9a3d ac98 393c
000000b0: 7aa6 443d 2541 753d ee27 1e3d 4209 963d
000000c0: 4fea c9bc 0cdc 0e3d e8bf e23c 3246 98bc
000000d0: ab9f 95bc 9e19 b33c c180 243d 79ab 153d
000000e0: de02 2f3d 6d43 a23d 2f6a 003d ccf9 8e3d
000000f0: 1b38 393d 748b 7b3d 1567 273d 808c 7cbd
00000100: 7375 8d3b a1ae 2cbd 2078 5abd d066 16bc
00000110: e6c3 34bd d7e8 ebbb 3a76 91bd b2af 723d
00000120: 2fef c83c 4644 a7bc 81ae 2b3d c975 14bd
00000130: bca3 243d 5fd4 3b3b e7c0 45bd 1d68 823d
00000140: 1ce0 00bd 6aac 1ebd bfd3 8abd a8e6 51bc
00000150: 73ff 09bc 79f9 653c 2d24 d1b9 ad6c 853d
00000160: e618 9d3d a489 d8bc 23c8 9bbd fcab c23a
00000170: dc5c 59bd bf7c 2b3d e75c 07bd ca5e 1bbd
00000180: f46f d03c 8c64 963d b059 e63a 5c54 dabc
00000190: 103f 803d 070f 6b3c 5c3d 373d 2e00 433b
000001a0: 371d 613d 16bc a13d 7227 983c 25b2 8fbc
000001b0: 010a 0d3c cbbb 803d e989 acbc 94ca 163b
000001c0: 78ac ebba 9cca 4dbd fa4d 9f3c 9639 91bc
000001d0: dd24 743c 0d55 49bd 752b 253d 4725 2abd
000001e0: f5d8 4a3d d914 5cbd 5182 1ebd 6d6a d1bb
000001f0: b74d a83d cd8c 0bbd 9daf b53c 3999 a0bc
00000200: 36a0 2abd f658 8b3d 6596 e1bc 4cfe 213c
00000210: 7a56 613d ebf9 e33c 4d04 dbbc 6925 bb3c
00000220: 42e2 343d 3d93 82bc 1857 be3c bb07 333c
00000230: ad8c a73d 12b3 1ebd 9a07 9b3d 3516 683c
00000240: 4a56 d33c 8c8e 333c 1454 703d e2de 54bd
00000250: 5ddd 43bd 08af 2b3d d981 563d e7fd 93bd
00000260: 4896 5dbb 14e5 313d f156 8d3d 8829 853c
00000270: a9dd f93c 0c43 443d 8a02 803d 5cc1 1e3d
00000280: c5b7 36bd f9af f0bb 7c73 46bd fa41 773d
00000290: 49fa 243d b7c5 64bc 19b0 a13d 5e8e 93bc
000002a0: ed3c 43bd 7f5b 67bd bf94 37bc c844 0f3d
000002b0: 913a a63d 184c 063d f4bf b8bc aaa7 833d
000002c0: c1a0 943d 27bf 4e3d e5bb 5ebc efa5 573d
000002d0: 7582 d8bb 7dbd f7ba fac0 753c b0bd b2bc
000002e0: 8354 72bd 8b95 16bd 933d 35bd eb36 633d
000002f0: 24be 3e3d 38f3 e83c 537e fabc f2ab d6bc
-0.008503793 -0.010223273 -0.023874782 0.010300401 -0.028247863 0.037817363 0.00510364 -0.054743726
-0.027850324 0.02574307 0.04350813 -0.05203063 -0.018482232 0.060079057 0.010890348 -0.003349265
0.017654892 0.022952313 -0.07769691 0.04968937 0.020103734 0.053034116 0.06423036 0.0037584542
-0.059710424 -0.0044113547 -0.06873491 0.07513339 0.04451065 -0.00911524 0.07233455 0.059903484
0.0506597 0.010826075 0.06263438 0.06669676 -0.024041725 0.05859837 0.076565176 0.0019031027
0.06654682 0.030772632 0.075407766 0.011327904 0.048010327 0.05987658 0.0386123 0.073259845
-0.02464786 0.03487782 0.027679399 -0.01858816 -0.018264612 0.021862801 0.04016185 0.036540482
0.042727344 0.07923017 0.031351265 0.06981239 0.045219522 0.06141229 0.04086979 -0.06165743
0.0043169796 -0.042158727 -0.053337216 -0.009179786 -0.044132136 -0.0071993875 -0.07102628 0.059249587
0.024528114 -0.020418297 0.041914467 -0.03624514 0.04019521 0.0028660519 -0.04827967 0.06367514
-0.031463727 -0.038738646 -0.067786686 -0.01281134 -0.00842272 0.01403653 -0.0003989054 0.06514869
0.076707646 -0.02643282 -0.076065324 0.0014852281 -0.053067073 0.041867014 -0.033047583 -0.037932195
0.025444008 0.073433965 0.0017574336 -0.026651554 0.06262028 0.0143468445 0.04473625 0.0029754746
0.054959502 0.07897203 0.018573496 -0.017541 0.008608342 0.06285819 -0.021061854 0.002300893
-0.0017980477 -0.05024205 0.019446362 -0.017727654 0.014901367 -0.049153376 0.040324647 -0.041539457
0.049523313 -0.05373082 -0.0386985 -0.006390861 0.08217948 -0.034069825 0.022178466 -0.019604312
-0.041656695 0.06804077 -0.027537534 0.009887289 0.05501411 0.027829131 -0.02673545 0.022844987
0.04416109 -0.01593935 0.023234889 0.010927136 0.08181129 -0.038744994 0.07569809 0.014165451
0.025797982 0.010959279 0.058673933 -0.05197037 -0.04781853 0.04191497 0.052369926 -0.072261624
-0.0033811498 0.043431357 0.069013484 0.016255155 0.030501204 0.047915503 0.06250484 0.03875862
-0.04460885 -0.0073451963 -0.04844998 0.060365655 0.040277753 -0.0139631545 0.07894916 -0.018012222
-0.047665525 -0.05648374 -0.011204897 0.034977704 0.081166394 0.032787412 -0.022552468 0.06428464
0.07257224 0.050475266 -0.013594602 0.05264848 -0.0066073486 -0.0018901076 0.0149996225 -0.021818966
-0.059162628 -0.03676371 -0.044248175 0.055472296 0.04656805 0.028436288 -0.030577814 -0.026205037

dense1.weight f4 [32, 192]
00000000: c86f 61bd 02bf df3c d67d b63a 30c0 143d
00000010: e558 433d f4bd fbbc 3929 113d a222 973d
00000020: de0e 0b3c 0d2f f5bc 6dc7 523d 5b5a 973d
00000030: f31c fdbc ad6c dd3c 0eb1 2f3b edd0 ad3c
00000040: 2c56 4a3d 2ad7 4a3d 7fc4 70bd 2774 cf38
00000050: 6c83 393d 03ea 833d 286c 143d 7930 003d
00000060: 627d 3d3c b3ea 92bd 9567 d63c 2be1 2dbd
00000070: b9fe 893c 6f1e a03d 021b 193d 5b23 b4bc
00000080: 6f95 3c3c 56eb 073b 3248 813d 31ed c43b
00000090: a584 753c b8a2 963c 631c 843d 9337 95bc
000000a0: 3042 31bd 9ccc c1bc 76cf 263d f594 5cbd
000000b0: aad2 4abd 3132 4d3c 9558 cfbc ce8f 20bd
000000c0: 1ce8 963c cf21 413d 5d28 233d cfdb 1dbd
000000d0: 8186 8f3d 850b 2abd 72e0 a93d 0791 a13d
000000e0: 80a1 033c 31e5 d13c 34c5 543c 5ca9 a4bb
000000f0: c724 863c 9644 4fbd 9728 c63c 0850 143d
00000100: 711f d1bc fc76 4abc 8e84 9cbc 97b1 26bd
00000110: 3b37 2ebd 6ef6 803d 0437 07bc f0e6 1bbd
00000120: c1dd ac3d e209 01bd 410c 9d3d 16c0 86bd
00000130: 6c70 333d dcf6 603d 8c05 a03d 6527 96bd
00000140: 9c0a 423d 3773 5fbd 656f 63bc f085 7dbd
00000150: 5377 c33c e44e fa3c f00c bc3c 3e45 da3c
00000160: 567f b23c 2d15 74bc fcfa 2b3d d20b 1e3b
00000170: 527a 0bbd b327 8f3d a3c5 683d e7a0 3a3c
00000180: cf6c 4c3d d43a d0bc 0189 8f3d b5f4 80bd
00000190: 38d1 82bd da6d 61bc e32b 20bd 69ca 173d
000001a0: 0385 8e3b fe7d 22bc 9086 34bd 4d26 3bbd
000001b0: a2ed 1bbb e9f4 8ebd fa2d 30bd b25a de3c
000001c0: 8bb5 523c 500e 2b3d 5536 a83a 5ba0 1bbd
000001d0: 0291 6e3d 3c79 913d 7ce0 923c fa61 c53c
000001e0: 4f95 e53c a137 1b3d a28c 6fbc deb1 57bc
000001f0: a33e 7c3c 0e6d aa3d 3757 513c 2121 0b3b
00000200: 7189 69bd 5071 73bc 9c25 ac3c 3407 bc3b
00000210: 61f4 983d 488e 633d 8853 843b 56b4 9dbb
00000220: 4c49 77bd 8559 643c 0eb8 03bb 753d 603d
00000230: 2bef 263d 3a8c 483c 6d84 7f3d 5d1e 0b3d
00000240: 843b 143d eb33 68bd 011d d3bc c72f 793d
00000250: bebd 783d e8ac 853d 3786 d93c a033 563b
00000260: c183 6fbd dc72 04bd b905 8e3d 7d8a 5fbb
00000270: c3ae 953d fee9 84bd 1184 c1bc 060b 9f3c
00000280: 17f0 53bd 9c0f 4f3d 4532 743d ff24 4cbc
00000290: 36db 743d 51b7 463d d5f7 a73d 2768 67bd
000002a0: 54b0 2ebd 0aec 803c c3dd 09bb dc72 453d
000002b0: cbe0 4cbd fffd 853d 8858 d53c 8ee7 913d
000002c0: cbd0 3b3d 82de 783d bfe1 18bd 3354 393c
000002d0: efcd 3fbd 6e44 b03b 6aab 14bd c3e7 37bd
000002e0: 53f1 153d ab01 47bd 5049 0d3d 8539 51bd
000002f0: 9d06 8f3c 4314 0d3d c605 a43d 85bb 18bd
00000300: e9fe 41bd 783a adbc 893f c5bc acfb 9fbc
00000310: 508f 06bd ffad 873d 7eb6 c8bb 4054 5abd
00000320: 3a9e 203d 54c4 dc3c 361c cf3c d25b 5f3c
00000330: 4575 a23c f693 873d 423b 1c3d 1672 9e3b
00000340: 6317 a03d 157a a03c 3ad1 05bd 3761 6cba
00000350: c472 813c 0d5f 20bc 74af ac3d df6c 983c
00000360: 352f b93c 071f 7d3d 0d5c e9bb c624 5a3c
00000370: 7b3a fd3c 641e cb3c d498 6b3d e7fe ec3c
00000380: b6a0 ce3c 56e8 2c3b 3943 653d b1a0 08bd
00000390: e557 043d ee98 0d3d e18e 533d f5cd 943d
000003a0: e9d5 a93b 8064 403d 0742 d2bc 3ed6 46bd
000003b0: 9caa 57bd 171f 513d 5c7c 37bd 173a 683d
000003c0: 7efb 883d 2e9e 0abc 8d90 c43c 3f54 733d
000003d0: 316b 78bd d1b0 8a3c 467e 59bd a10a 80bd
000003e0: d99d 5dbc 35ce 113d 5f71 42bc e275 10bc
000003f0: a9a9 30bd 5659 813d 1778 993d f609 49bd
-0.055038244 0.02731276 0.0013923 0.036316097 0.0476922 -0.030730225 0.035439704 0.073796526
0.008487431 -0.029929662 0.05145972 0.07390281 -0.030897593 0.02702936 0.0026808414 0.021217788
0.049398586 0.049521603 -0.058781143 9.892164e-05 0.04529135 0.064411186 0.03623596 0.031296227
0.011565538 -0.071736716 0.026172439 -0.042451065 0.016845094 0.07818305 0.037379272 -0.021989515
0.011510237 0.0020739636 0.06312598 0.0060097207 0.014985238 0.018388137 0.06450727 -0.018214976
-0.043276012 -0.023657136 0.040725194 -0.053852994 -0.04951731 0.012524174 -0.025310794 -0.039199643
0.018421225 0.047151383 0.039833415 -0.038539704 0.070080765 -0.041514892 0.08294763 0.0788899
0.00803411 0.025621982 0.01298647 -0.005025072 0.016374959 -0.050602518 0.024189277 0.036209136
-0.025527688 -0.01235747 -0.019106176 -0.040696707 -0.04253314 0.06297003 -0.008252863 -0.038062036
0.08440734 -0.031503566 0.07668353 -0.06579606 0.043808386 0.054922923 0.07813558 -0.07331733
0.0473734 -0.054553237 -0.013881539 -0.06189531 0.02386061 0.030555196 0.022955388 0.026644345
0.021789234 -0.014897627 0.041987404 0.0024115932 -0.0340522 0.06989994 0.056829106 0.011390901
0.049908455 -0.025418676 0.07008553 -0.06296674 -0.063875616 -0.013759101 -0.039104354 0.037058268
0.0043493523 -0.009917734 -0.04407364 -0.045690823 -0.0023792763 -0.06980307 -0.043012597 0.027142856
0.012860666 0.041761696 0.0012833575 -0.037994724 0.05824376 0.07103202 0.017929308 0.02409457
0.028025297 0.03789485 -0.014620932 -0.013164965 0.015395793 0.08321582 0.012777141 0.0021229463
-0.05701584 -0.014858559 0.021014027 0.0057381634 0.074684866 0.05555561 0.004038278 -0.0048127575
-0.060372636 0.013937359 -0.0020098719 0.05474611 0.040755432 0.012240464 0.06238215 0.033964504
0.03618957 -0.056690138 -0.025770666 0.06083658 0.060727827 0.0652712 0.026553256 0.003268458
-0.05847526 -0.0323361 0.06934685 -0.0034109645 0.07308724 -0.06489943 -0.023622544 0.019414436
-0.05174264 0.050551996 0.059618253 -0.012459992 0.05977937 0.048514668 0.08201567 -0.05649581
-0.04264863 0.015737552 -0.0021036721 0.04820524 -0.050019067 0.065425865 0.026043192 0.07124244
0.045853417 0.060759075 -0.037324663 0.011311579 -0.046827253 0.005379251 -0.036296286 -0.04489876
0.036607098 -0.048585575 0.034493744 -0.051080246 0.017459208 0.03444315 0.08008914 -0.037288208
-0.047362242 -0.021146044 -0.024078147 -0.019529186 -0.032851517 0.06624984 -0.0061252704 -0.053303003
0.039213397 0.026949085 0.025282007 0.0136327315 0.01983131 0.06620018 0.03814245 0.0048353774
0.07816961 0.019589463 -0.032670237 -0.00090171717 0.015801795 -0.009788287 0.084319025 0.018606601
0.022605518 0.061797168 -0.007121569 0.0133144315 0.030911675 0.024794765 0.057518795 0.02893014
0.025223117 0.00263836 0.05597231 -0.033356372 0.032310385 0.034569673 0.05164993 0.07265846
0.005182971 0.046970844 -0.02566625 -0.04854416 -0.05265294 0.05105504 -0.044796333 0.056696024
0.06688593 -0.008460565 0.023994708 0.059406515 -0.0606491 0.016930016 -0.05309894 -0.06252027
-0.013526403 0.035597045 -0.01186785 -0.008817168 -0.04313055 0.063158676 0.074936084 -0.049081765

dense1.bias f4 [32]
00000000: a718 133d 0627 883d caca 823c e1f2 cd3c
00000010: a93f 48bb 61dd a63d 6a00 8e3c 595b 243c
00000020: eecf 9ebc 275e 90bc e2c0 37bd c2e8 193c
00000030: e06f 1fbb a50a 923d 6436 d23c 0e59 22bd
00000040: ec8b 3fb9 c8a0 703c 1ccb 54bc 1daf 61bd
00000050: e2a1 e63b cf05 90bd c493 6d3d 24fb ddbb
00000060: 52bc 993d daa0 1a3d d861 6e3d b0ba 753d
00000070: 0c41 26bc 3f9c 7a3d 8a6a a9bb e164 e93c
0.035912182 0.06648068 0.015965838 0.025140228 -0.0030555523 0.081476934 0.017334182 0.010031545
-0.019386258 -0.01762302 -0.04486168 0.009393873 -0.0024328157 0.071309365 0.025660701 -0.03963571
-0.00018267304 0.014686771 -0.012987878 -0.05509864 0.007038341 -0.07032358 0.05800225 -0.006774323
0.075066224 0.037751056 0.05819878 0.059992492 -0.010147344 0.061184164 -0.005170171 0.028490486

dense2.weight f4 [1, 32]
00000000: b755 5abd 6fbf 263e e825 433e 66be 78bd
00000010: feb5 f63d 5290 fbbc 7aed c93c 30dd 863d
00000020: 4b97 863c 48f5 23bd bada e9bd c107 2c3e
00000030: 4589 103e 2fd3 d6bd 96c3 413e 351f e73d
00000040: 381d 233e cf5f 493e 79cf 8cbb c75b 9f3d
00000050: 6ceb 35bc 5475 d73d 6ef7 0ebe 1c95 223e
00000060: d349 043e 7930 01be c16a 00be e9f6 473d
00000070: 18a9 1bbe 8de4 2bbe 049c ef3d 2b5b 82bd
-0.0533044 0.16283964 0.19057429 -0.060728453 0.12046431 -0.030708466 0.02464937 0.06585157
0.016429564 -0.04002884 -0.11418672 0.16799833 0.14114864 -0.10489499 0.18922266 0.11285249
0.15929115 0.19665454 -0.0042971936 0.07781177 -0.011103492 0.105204254 -0.13961574 0.15877193
0.12918787 -0.12616147 -0.12540723 0.048819456 -0.15201223 -0.16786404 0.116996795 -0.06365045
